lightning_logs/version_0/checkpoints/epoch=48-step=49.ckpt (torch, 32319 bytes, 25 tensors)

encoder.dense1.weight f4 [45, 28]
0	0x3e0a3e48	0.13500321
1	0xbdcc1c05	-0.09966282
2	0x3df2e9bb	0.11860987
3	0xbd457b94	-0.048213556
4	0x3b20281e	0.0024437974
5	0xbdeec256	-0.116581604
6	0x3dbf21ff	0.09332656
7	0x3ddba73b	0.10725256
8	0x3ce40942	0.027836446
9	0x3d8984cb	0.067147814
10	0x3e16ba51	0.14719512
11	0x3d81bf52	0.063353196
12	0xbe1e9102	-0.15485004
13	0xbdf0ed16	-0.117639706
14	0xbd5b369b	-0.053518873
15	0xbe00f557	-0.1259359
16	0xbdf59df0	-0.11993015
17	0x3d5f277f	0.054481026
18	0xbd2cb912	-0.042168684
19	0x3d07924e	0.03309851
20	0x3d5f3b37	0.05449983
21	0x3dfbb0df	0.12289595
22	0x3dab6c98	0.08370322
23	0xbb2d28c4	-0.0026422003
24	0xbdb6745e	-0.08908914
25	0xbe1cf0ed	-0.15326281
26	0x3ddbd9d8	0.1073491
27	0x3ddb301e	0.10702537
28	0x3d02a4f3	0.03189559
29	0xbe244208	-0.16040814
30	0x3e2de03f	0.16980074
31	0xbdcfb231	-0.10141409
32	0x3cfe81d6	0.03106777
33	0xbe517708	-0.20455563
34	0x3e24af32	0.16082457
35	0x3e53f8a3	0.20700316
36	0x3e570c58	0.21000803
37	0x3d83e136	0.0643944
38	0xbd0c693a	-0.03428004
39	0xbe1bed75	-0.15227301
40	0xbe155249	-0.1458217
41	0xbe0b8ae1	-0.13627197
42	0xbce4f390	-0.02794817
43	0xbdcb1d5f	-0.099177115
44	0x3dc14725	0.09437398
45	0xbe538832	-0.20657423
46	0x3be664b4	0.0070310477
47	0xbe10160a	-0.14070907
48	0x3d3ba500	0.045811653
49	0x3dde8426	0.10865049
50	0x3cc6050a	0.024172325
51	0x3e095c04	0.13414007
52	0xbcec3f70	-0.028838843
53	0xbc4ce3c3	-0.0125054745
54	0xbe21b886	-0.15793046
55	0xbd8672fa	-0.06564899
56	0x3d90cca0	0.07070279
57	0xbd81e7f6	-0.06343071
58	0x3e0f5dd2	0.14000633
59	0xbe492608	-0.19643414
60	0xbe2053f2	-0.15657023
61	0xbe15f674	-0.14644796
62	0xbda66011	-0.08123792
63	0x3d6c405f	0.057678577
64	0x3e1fdfe1	0.15612747
65	0x3e159387	0.14607058
66	0x3d1aa4c4	0.03775479
67	0x3e0e1a83	0.13877301
68	0xbce83950	-0.028347641
69	0xbe0bd961	-0.13657142
70	0xbd8530b2	-0.065034285
71	0xbd442cfe	-0.04789447
72	0x3b9b640e	0.004742152
73	0xbe26a11e	-0.16272399
74	0xbcfcec2e	-0.030874338
75	0x3e04f7cf	0.12985156
76	0xbcb5c275	-0.02218745
77	0x3d4bb3bb	0.04973195
78	0x3e19c64b	0.15017049
79	0x3e244eb0	0.16045642
80	0x3dfa0eee	0.12209879
81	0xbe36a518	-0.17836416
82	0xbdf0e171	-0.117617495
83	0x3da4edf4	0.080531985
84	0x3e35c1ed	0.17749758
85	0x3d2366ed	0.03989308
86	0xbd33f566	-0.043935202
87	0xbddd45cf	-0.108043306
88	0x3dffcd43	0.124903224
89	0xbe257812	-0.16159084
90	0x3d7760ee	0.060395174
91	0xbe1dfd9e	-0.15428779
92	0x3de0539b	0.109534465
93	0xbdf572c7	-0.11984783
94	0x3d88503f	0.06655931
95	0xbdc3727b	-0.0954332
96	0x3da44024	0.08020046
97	0x3daf2890	0.085526586
98	0x3b9644b9	0.004585829
99	0xbe4a03ab	-0.19727962
100	0xbd517529	-0.051137123
101	0xbdce92a7	-0.100865655
102	0x3d2306cb	0.0398014
103	0xbe3a7e63	-0.18212275
104	0x3d8f4c95	0.06997029
105	0xbcf7e6b6	-0.030261379
106	0xbe04a409	-0.129532
107	0x3e404751	0.18777205
108	0xbe111cbe	-0.1417112
109	0xbe556562	-0.20839456
110	0x3d650c02	0.055919655
111	0xbd9cc4b9	-0.07654709
112	0x3d8cf096	0.068818256
113	0xbe068026	-0.13134822
114	0xbe2c432f	-0.16822504
115	0xbdbec209	-0.09314353
116	0x3dfb2aea	0.122640446
117	0x3e2775f2	0.16353586
118	0x3dc9939c	0.098426074
119	0xbda7faff	-0.082021706
120	0x3e1ac737	0.15115057
121	0xbe1ccd8f	-0.1531279
122	0x3bac009a	0.005249095
123	0x3d9be57b	0.07612129
124	0xbcd7098b	-0.026249668
125	0x3e1b9fdd	0.15197702
126	0xbe38b36a	-0.18037191
127	0x3d116612	0.035497732
128	0x3d518a05	0.051157016
129	0xbe180485	-0.14845474
130	0x3e1f4ac4	0.15555865
131	0x3d7fce69	0.062452707
132	0x3bfbd547	0.0076853368
133	0x3e172866	0.14761505
134	0x3df30732	0.11866607
135	0x3d576bce	0.052593045
136	0x3d1a9bd5	0.03774627
137	0x3e08b4ee	0.13350269
138	0xbc5ebe9f	-0.013595252
139	0xbdbbbe94	-0.09167209
140	0xbd999d6a	-0.075007275
141	0xbd8d052e	-0.068857536
142	0xbbacddf4	-0.0052754823
143	0x3e08043c	0.13282865
144	0xbcabcc5c	-0.02097147
145	0x3df58048	0.11987358
146	0x3dd99e16	0.106258556
147	0x3d44ec6b	0.04807703
148	0xbe22d360	-0.15900946
149	0xbe5ce175	-0.2157038
150	0xbe0186e6	-0.12649116
151	0xbd1c6acd	-0.03818779
152	0x3e5ad73c	0.21371168
153	0xbe10c963	-0.14139323
154	0x3d2f131c	0.042742833
155	0xbe10736d	-0.14106531
156	0xbdbb31e1	-0.09140373
157	0xbe47725b	-0.19477217
158	0x3d00e739	0.03147051
159	0xbe3a33c2	-0.18183807
160	0xbd7aaec5	-0.06120183
161	0xbbd1da48	-0.006404195
162	0xbd658e08	-0.056043655
163	0x3dfb8969	0.12282068
164	0xbd4bc971	-0.049752656
165	0x3da05a68	0.078297436
166	0xbaaced43	-0.0013193268
167	0x3e168b08	0.14701474
168	0x3e0a7c17	0.13523899
169	0xbc394b51	-0.011309461
170	0x3d8f98be	0.07011555
171	0xbd294c62	-0.04133261
172	0xbde9719d	-0.11398623
173	0x3d942eca	0.07235487
174	0xbd266369	-0.04062215
175	0xbd7b5b81	-0.06136656
176	0xbcbcb1b1	-0.023033949
177	0x3dc6a7cb	0.09699973
178	0xbd9ff793	-0.07810893
179	0x3ddf9884	0.10917762
180	0x3e107405	0.14106758
181	0x3d1ec8d5	0.038765747
182	0xbd506c5b	-0.050884586
183	0xbbcc134a	-0.0062278854
184	0xbdc9b402	-0.09848787
185	0x3c83cad2	0.016087923
186	0xbde8c9a9	-0.113665886
187	0xbca4fe7d	-0.02014088
188	0xbe0d6e7e	-0.1381168
189	0xbe61e3ff	-0.2205963
190	0x3e12254e	0.14272043
191	0xbc6a474a	-0.014299223
192	0x3d410fb7	0.047134127
193	0xbe41efbb	-0.18939106
194	0x3d940784	0.07227996
195	0x3de2904c	0.11062679
196	0x3cbcb0af	0.023033468
197	0x3dac23f8	0.08405298
198	0xbe0d57ca	-0.1380302
199	0xbdb572d8	-0.08859795
200	0x3e3baa75	0.18326743
201	0x3df5ceae	0.12002312
202	0x3d59debb	0.053190928
203	0x3beeebb7	0.007291283
204	0x3cec14b8	0.028818473
205	0x3dc61b93	0.09673228
206	0xbd1c7d36	-0.038205348
207	0x3e1ee276	0.15516075
208	0xbdbdc8a3	-0.09266784
209	0xbe1420a8	-0.14465582
210	0x3d780fc7	0.06056192
211	0x3d99db0c	0.07512483
212	0xbdf952e9	-0.12174017
213	0xbd0faf7a	-0.035079457
214	0x3d9206b5	0.071301855
215	0xbbb6ad2e	-0.005574844
216	0x3d6553e4	0.055988207
217	0x3e4a5416	0.19758639
218	0x3cc4addf	0.02400869
219	0x3d5af384	0.05345489
220	0x3d50bb9c	0.05096017
221	0x3e2cb574	0.16866094
222	0xbccad84e	-0.024761345
223	0x3e363dee	0.17797062
224	0xbd9e12c7	-0.07718425
225	0x3d8f869c	0.070080966
226	0x3c2227c9	0.009897181
227	0xbcb3c70a	-0.021945495
228	0x3df007d0	0.1172024
229	0x3d8aaf82	0.06771757
230	0x3d4d7eed	0.050169874
231	0x3e21fffb	0.15820305
232	0x3e10dec5	0.1414748
233	0xbcae9bae	-0.021314468
234	0xbd80da3a	-0.062916234
235	0x3c64f79e	0.013975052
236	0xbd94c215	-0.07263581
237	0xbe3a8f4f	-0.1821873
238	0xbd827102	-0.06369211
239	0xbd2a8a5d	-0.04163586
240	0xbcc53caa	-0.024076778
241	0xbd0ea5f2	-0.034826227
242	0xbe0ed43c	-0.13948148
243	0xbddf340b	-0.10898598
244	0x3e23d54b	0.15999334
245	0xbd87af5c	-0.06625244
246	0xbe4b0980	-0.19827843
247	0xbde51a2a	-0.11186631
248	0xbdba9869	-0.09111101
249	0x3cb5520b	0.022133848
250	0x3ddb3abb	0.10704561
251	0x3d11bfe7	0.035583403
252	0xbe1fbf9e	-0.1560044
253	0xbdcab40c	-0.098976225
254	0xbd86e3a1	-0.065863855
255	0x3dcdffb5	0.10058538

encoder.dense1.bias f4 [45]
0	0xbd9669f8	-0.07344431
1	0x3d80abdc	0.062827796
2	0xbb29636a	-0.002584661
3	0xbe0fbef9	-0.14037694
4	0x3df2578e	0.11833106
5	0x3c6c30b6	0.0144159105
6	0xbdb732d3	-0.08945241
7	0x3d51777d	0.051139344
8	0xbd8222be	-0.06354283
9	0xbc34b727	-0.011029995
10	0x3dec7aaf	0.115468375
11	0x3dd82341	0.10553599
12	0xbe406a26	-0.18790492
13	0xbda94c0f	-0.0826646
14	0xbe0362c1	-0.1283064
15	0x3e57db2d	0.21079703
16	0xbc9425c8	-0.018084422
17	0x3dd76c0f	0.105186574
18	0x3d90d7ae	0.07072388
19	0x3d8ebf58	0.0697009
20	0x3e0dce83	0.13848309
21	0xbd12d1b8	-0.035844535
22	0xbcec233d	-0.028825397
23	0x3b912577	0.004429515
24	0x3d55e55c	0.052220687
25	0x3e26eca2	0.16301206
26	0x3d95fd2d	0.0732368
27	0x3d3645a1	0.044499997
28	0xbe366de8	-0.17815363
29	0xbe113f9e	-0.14184424
30	0xbe052496	-0.13002238
31	0x3e02d6ad	0.12777205
32	0x3e099c96	0.13438639
33	0xbc38ce03	-0.011279586
34	0x3da6c39c	0.08142778
35	0xbe338e2a	-0.175347
36	0xbd909d3a	-0.070612386
37	0x3d3c491f	0.04596817
38	0xbe199f2a	-0.15002123
39	0x3e15dc75	0.14634879
40	0xbd743248	-0.059618264
41	0x3e07adae	0.13249847
42	0xbdaf2ea9	-0.085538216
43	0x3dee1327	0.11624747
44	0xbd8cebd2	-0.06880917

encoder.dense3m.weight f4 [3, 45]
0	0x3d4abc6b	0.049496096
1	0xbd0d48c0	-0.034493208
2	0x3e23e8fe	0.16006848
3	0xbd12b304	-0.035815254
4	0x3d2906fb	0.041266423
5	0xbdb33f8b	-0.08752354
6	0x3a07cc79	0.000518031
7	0xbc865bd5	-0.01640121
8	0x3dc6e166	0.0971096
9	0xbd474466	-0.048649214
10	0xbd92362c	-0.07139239
11	0xbc88a39b	-0.016679576
12	0xbd99dff2	-0.07513417
13	0x3e119273	0.14216022
14	0xbcbac560	-0.022799194
15	0x3c1cb188	0.009563811
16	0x3d8a2371	0.06745041
17	0x3cb2d5b1	0.021830412
18	0x3c994755	0.018710772
19	0x3d2bdc33	0.041958045
20	0x3e206421	0.15663196
21	0xbe206c40	-0.15666294
22	0xbc8ac271	-0.01693842
23	0xbdfc804d	-0.12329159
24	0x3df0bf42	0.117552295
25	0xbd8abe95	-0.06774632
26	0x3d28c550	0.041203797
27	0x3d177cf5	0.036984403
28	0xbcf83491	-0.030298503
29	0xbdc5168e	-0.096234426
30	0x3d93c76d	0.07215772
31	0xbddc263b	-0.107494794
32	0xbde42d71	-0.1114148
33	0xbdba72a2	-0.09103896
34	0xbd8bcfb0	-0.068267226
35	0x3dfa6a6f	0.12227332
36	0x3c5288e7	0.012850023
37	0xbd87cb81	-0.06630612
38	0x3c7da192	0.015480416
39	0xbdba1a99	-0.09087104
40	0xbe48f19e	-0.1962342
41	0xbdcab17b	-0.09897133
42	0xbd736c3b	-0.05942939
43	0x3dc7f4da	0.097634986
44	0xbe14d98f	-0.14536117
45	0x3dd0f6b8	0.10203308
46	0x3d8144a2	0.06311919
47	0xbe333c37	-0.17503439
48	0xbe060660	-0.1308837
49	0xbdd8788c	-0.105698675
50	0xbd769a43	-0.06020571
51	0xbdf21fa9	-0.11822445
52	0x3dcea41c	0.10089895
53	0x3cff5d62	0.031172458
54	0xbd0d0814	-0.034431532
55	0xbd4a0a11	-0.049326006
56	0xbc33c611	-0.010972516
57	0xbe216be1	-0.15763809
58	0xbda08d46	-0.07839446
59	0xbde7fcc0	-0.11327505
60	0x3e05c255	0.13062413
61	0x3b1ab6d7	0.0023607516
62	0x3dccc582	0.09998609
63	0x3d4068ba	0.046974875
64	0xbde6090a	-0.11232193
65	0x3d83db1d	0.06438277
66	0x3d16daf5	0.036829907
67	0xbbf9d661	-0.007624433
68	0x3dc135f7	0.09434121
69	0xbdc3b521	-0.09556032
70	0x3c226c77	0.009913555
71	0xbe05d3b4	-0.1306904
72	0xbbf539ad	-0.007483682
73	0x3d49590f	0.0491572
74	0x3d377781	0.044791702
75	0x3df5d7f5	0.12004081
76	0xbd05bd88	-0.032651454
77	0xbd1a97de	-0.037742488
78	0xbddd2c3a	-0.10799451
79	0x3daf1fd1	0.085509904
80	0xbc034353	-0.008011657
81	0xbd5ed60e	-0.054403357
82	0x3b86704f	0.0041027437
83	0xbcfc4ec3	-0.030799275
84	0x3d952298	0.07281989
85	0x3d5db94c	0.05413179
86	0x3e14c92a	0.14529863
87	0xbdc79875	-0.09745876
88	0x3d1ea808	0.038734466
89	0xbdf082c7	-0.11743694
90	0xbd1ba627	-0.038000252
91	0x3dc7c736	0.09754793
92	0x3e0e2941	0.13882925
93	0x3de255c9	0.110515185
94	0xbd6573d5	-0.05601867
95	0x3de967cb	0.1139675
96	0x3d424442	0.047428377
97	0x3ce03f2e	0.027373876
98	0xbc82cec3	-0.015967732
99	0xbce38b3f	-0.027776359
100	0xbdef7e30	-0.1169399
101	0xbdefc4a6	-0.117074296
102	0xbe261af3	-0.16221218
103	0x3d86e665	0.06586913
104	0x3d6288f0	0.055306375
105	0x3d43fa49	0.047846112
106	0x3df080af	0.117432944
107	0x3e24c25f	0.16089772
108	0x3aafd732	0.0013415574
109	0x3ac5983f	0.001507528
110	0x3dbd0dc9	0.09231145
111	0xbd37f989	-0.04491571
112	0xbe077bc3	-0.13230805
113	0xbd1814af	-0.0371291
114	0xbda5811e	-0.08081268
115	0xbd8694bb	-0.06571337
116	0x3dcb0d31	0.099146254
117	0xbdbab534	-0.09116593
118	0xbc112563	-0.008859011
119	0xbe2be001	-0.1678467
120	0x3c8d8dc4	0.017279513
121	0x3d530f44	0.05152823
122	0x3e4213e7	0.18952905
123	0xbe08e283	-0.13367657
124	0xbd919813	-0.07109084
125	0x3dcdffc2	0.100585476
126	0xbdaef272	-0.085423365
127	0x3d29a85a	0.04142032
128	0xbe0cd98f	-0.13754867
129	0xbdb7addb	-0.08968707
130	0xbd97df25	-0.07415608
131	0xbdd66060	-0.10467601
132	0x3ba780d7	0.0051117945
133	0xbd5e52b8	-0.054278105
134	0xbc793c63	-0.015212151

encoder.dense3m.bias f4 [3]
0	0xbde2a105	-0.11065868
1	0xbdd7d24c	-0.10538158
2	0x3db2ada6	0.08724527

encoder.dense3s.weight f4 [3, 45]
0	0xbc864402	-0.01638985
1	0x3e0f579a	0.13998261
2	0xbce37499	-0.027765559
3	0x3e00f7bf	0.12594508
4	0xbcaba4e2	-0.020952646
5	0xbde02ab7	-0.10945647
6	0x3d723f9f	0.059142705
7	0x3d51f10d	0.051255275
8	0xbd8c6cb4	-0.06856671
9	0xbe01a435	-0.12660296
10	0xbdb0e65f	-0.0863769
11	0x3d3b1614	0.045675352
12	0xbd5f0c98	-0.05445537
13	0x3b502ce2	0.0031765033
14	0x3cb04671	0.021517964
15	0x3c871604	0.01648999
16	0x3e19f189	0.15033545
17	0xbdeb4fcf	-0.11489832
18	0xbd30834c	-0.043093964
19	0xbdf18a4f	-0.117939584
20	0x3b9ce7d3	0.004788378
21	0x3da89e39	0.082333036
22	0x3d1e4741	0.03864217
23	0xbce4bfec	-0.027923547
24	0xbde3582e	-0.11100803
25	0xbd9f68c9	-0.07783658
26	0xbdfef6de	-0.1244943
27	0xbd591bc1	-0.053004984
28	0xbc6e7406	-0.014554029
29	0x3c5da776	0.013528695
30	0x3b141d79	0.0022600575
31	0xbdd6916a	-0.10476954
32	0xbc6ce500	-0.014458895
33	0x3d84d1b0	0.06485307
34	0xbddf4508	-0.109018385
35	0x3dd38c86	0.10329537
36	0xbd0dde44	-0.034635797
37	0xbd2e3572	-0.04253144
38	0x3db6e714	0.089307934
39	0xbd23d998	-0.040002435
40	0x3dac7805	0.084213294
41	0x3ce0bad9	0.027432846
42	0x3d7beb84	0.061503902
43	0x3d7b2c0c	0.061321303
44	0x3df6ecbb	0.120568715
45	0xbd9f7be3	-0.077873014
46	0x3dfb866d	0.12281499
47	0xbdd39817	-0.10331743
48	0x3deed980	0.116625786
49	0xbcfbfae7	-0.030759288
50	0x3dbe5831	0.09294165
51	0x3dcce347	0.10004287
52	0x3d76f237	0.060289588
53	0xbde1e24f	-0.11029493
54	0xbd8d4ebb	-0.06899782
55	0x3d8c57e1	0.06852699
56	0x3cc60290	0.024171144
57	0x3da36179	0.07977576
58	0x3ac427d2	0.0014965481
59	0x3d6a4be1	0.05720127
60	0xbb195864	-0.0023398632
61	0x3d9e2e2a	0.07723649
62	0xbd1014dc	-0.035176143
63	0x3c0c4a02	0.008562567
64	0x3d3008a6	0.042976998
65	0x3cc5c853	0.024143374
66	0xbde14b8b	-0.11000737
67	0xbdd0458d	-0.10169516
68	0xbc499525	-0.012303625
69	0x3c175734	0.009237099
70	0xbd74b985	-0.059747238
71	0xbd36e565	-0.04465236
72	0xbd7c842b	-0.061649483
73	0xbd86defd	-0.065855004
74	0x3ce4db3d	0.027936572
75	0xbba150fc	-0.004922984
76	0x3d9e6775	0.077345766
77	0x3da79c0f	0.08184063
78	0x3dcd7d8b	0.10033711
79	0x3b3571c4	0.0027686218
80	0xbdfd6a64	-0.12373808
81	0xbc47a4b4	-0.012185264
82	0xbd794c90	-0.06086403
83	0x3db1d5d8	0.086833656
84	0xbdc558d9	-0.09636087
85	0x3dfc1fc2	0.12310745
86	0x3d3c89b6	0.04602977
87	0xbda29546	-0.07938628
88	0xbc921f87	-0.017837299
89	0xbd5e837d	-0.054324616
90	0xbccd42e1	-0.025056304
91	0x3a670c1e	0.0008813756
92	0xbd5cab2c	-0.05387418
93	0x3e14d227	0.14533292
94	0x3d9b067d	0.07569597
95	0x3d03315b	0.03202949
96	0x3bad7ed5	0.0052946606
97	0xbdea351a	-0.114359096
98	0x3d517367	0.051135447
99	0xbcd24611	-0.025668176
100	0xbdc6e7d5	-0.09712187
101	0x3de384ea	0.11109336
102	0xbbb16035	-0.00541308
103	0xbcbec803	-0.023288732
104	0xbdc5223d	-0.09625671
105	0x3d4fc7be	0.0507276
106	0xbcc08f82	-0.02350593
107	0x3df7aabe	0.12093113
108	0x3dcc5154	0.099764496
109	0x3de6ec06	0.11275487
110	0xbdd99d7e	-0.106257424
111	0x3d90956c	0.0705975
112	0x3da05421	0.07828546
113	0x3e0a16b5	0.13485225
114	0xbe12d2c3	-0.14338212
115	0xbd7ccef0	-0.06172079
116	0xbd8247a0	-0.06361318
117	0xbd23151d	-0.039815057
118	0x3dc5f295	0.096654095
119	0x3dbb6c7f	0.09151553
120	0xbda93ba2	-0.08263327
121	0xbc570d91	-0.013125793
122	0xbd220d1b	-0.03956328
123	0x3e0ac718	0.1355251
124	0xbd0b0149	-0.033936772
125	0x3d05ee97	0.03269824
126	0x3dd09459	0.10184545
127	0x3dd17ca9	0.10228855
128	0x3d36c2b3	0.044619273
129	0xbd914732	-0.070936576
130	0x3dd36642	0.103222385
131	0x3d966f29	0.07345421
132	0xbd9f6cee	-0.077844486
133	0x3e1d6f07	0.15374385
134	0x3e07d5c5	0.1326514

encoder.dense3s.bias f4 [3]
0	0x3dd4092e	0.103533134
1	0x3dce12e7	0.10062199
2	0xbe091b99	-0.13389434

decoder.linear.bias f4 [28]
0	0xbec4c75a	-0.38433343
1	0x3f070529	0.5274225
2	0xbe7651d5	-0.24054654
3	0x3f119882	0.56873333
4	0xbd8602a9	-0.06543476
5	0xbf1b5a54	-0.60684705
6	0x3e808aa2	0.25105768
7	0xbec2fd77	-0.38084003
8	0x3e81a2d0	0.2531953
9	0x3ee7ed78	0.45298362
10	0xbe687ed1	-0.22704627
11	0x3f19fa29	0.6014734
12	0x3f02f3ac	0.51153064
13	0x3edf177f	0.43572614
14	0xbdd9f63e	-0.1064267
15	0x3e8f106c	0.27942216
16	0xbef7035b	-0.48244748
17	0xbe93f4a5	-0.28897586
18	0x3f040a97	0.5157866
19	0xbd2c3131	-0.0420391
20	0xbe4d1fdd	-0.20031686
21	0xbe3c19e4	-0.18369251
22	0x3ec43589	0.38322094
23	0xbd4f1ede	-0.050566547
24	0xbd9e0d73	-0.07717409
25	0x3db2a1ad	0.087222435
26	0x3d2bb5e5	0.041921515
27	0xbe34f255	-0.17670567

decoder.linear.weight_orig f4 [28, 3]
0	0x3de340ec	0.11096367
1	0x3edeed0c	0.43540227
2	0x3d7da8b0	0.06192845
3	0x3dca2a10	0.09871304
4	0xbe998bfa	-0.29989606
5	0x3e1dc394	0.15406638
6	0x3e0cd1de	0.13751933
7	0xbf11ea1f	-0.56997865
8	0x3ce7f6e7	0.028315974
9	0xbd0b5fd0	-0.03402692
10	0xbf0772df	-0.52909654
11	0xbe9bab4f	-0.30404136
12	0x3f110d2c	0.56660724
13	0xbd8cc008	-0.068725646
14	0xbeff65e9	-0.4988244
15	0x3e8c1ee8	0.2736733
16	0xbee9bf6e	-0.45653862
17	0xbea33bea	-0.31881648
18	0x3ddc1427	0.10746031
19	0x3e27ef9c	0.16399997
20	0xbe19df1f	-0.1502652
21	0x3e1861e0	0.14881086
22	0x3e675868	0.22592318
23	0x3eb72dac	0.35777032
24	0xbe4bcb64	-0.19901806
25	0xbd665840	-0.056236506
26	0x3e70f835	0.23532183
27	0x3edc923f	0.43080327
28	0x3f02eeaa	0.5114542
29	0x3e136f9c	0.14398044
30	0x3eb5f6af	0.35539767
31	0xbde05a7c	-0.109547585
32	0xbe35a750	-0.17739606
33	0xbe8789f0	-0.26472425
34	0x3de537b8	0.11192268
35	0xbe660ded	-0.2246625
36	0xbed78f0a	-0.42101318
37	0xbf12a7fe	-0.57287586
38	0xbc93a1a0	-0.018021405
39	0xbe2f9ed0	-0.17150426
40	0x3d02b660	0.031912208
41	0xbede288c	-0.4339031
42	0xbe8d1834	-0.27557528
43	0xbda1bafc	-0.078969926
44	0xbe011812	-0.12606838
45	0xbe8bcc64	-0.27304375
46	0x3e6903b8	0.22755325
47	0xbedee113	-0.43531093
48	0xbb83cc00	-0.0040221214
49	0x3f02a400	0.51031494
50	0xbe8a9f65	-0.27074733
51	0x3e8ce644	0.2751943
52	0xbda1391c	-0.07872221
53	0xbedf9924	-0.43671525
54	0xbd67a1a0	-0.056550622
55	0x3e91d86c	0.2848543
56	0x3ef90eab	0.48644003
57	0x3e860b9c	0.26180732
58	0xbe7293c6	-0.23689184
59	0xbed7ac57	-0.42123672
60	0x3c0345fe	0.008012293
61	0xbeee11dc	-0.46498
62	0x3e88f595	0.26749864
63	0xbe4c8a18	-0.19974554
64	0xbd949448	-0.07254845
65	0xbe904adc	-0.28182113
66	0xbeea327a	-0.45741636
67	0xbeb458ac	-0.352239
68	0xbe4e155e	-0.20125338
69	0x3f0b02d6	0.543012
70	0xbeded2f6	-0.43520325
71	0xbe285264	-0.1643768
72	0xbeca7365	-0.39541164
73	0x3f055fd4	0.5209935
74	0xbe35c58c	-0.1775114
75	0xbe5c6524	-0.21522957
76	0xbef13136	-0.47107857
77	0xbe5359c3	-0.2063971
78	0x3dc66331	0.09686888
79	0x3ee8d94c	0.45478284
80	0x3e01331c	0.12617153
81	0xbe9ddf14	-0.30834258
82	0x3edf7e40	0.4365101
83	0xbe8caa4a	-0.2747367

decoder.linear.weight_mask f4 [28, 3]
0	0x3f800000	1.0
1	0x00000000	0.0
2	0x00000000	0.0
3	0x00000000	0.0
4	0x3f800000	1.0
5	0x00000000	0.0
6	0x3f800000	1.0
7	0x00000000	0.0
8	0x3f800000	1.0
9	0x00000000	0.0
10	0x00000000	0.0
11	0x3f800000	1.0
12	0x00000000	0.0
13	0x00000000	0.0
14	0x3f800000	1.0
15	0x00000000	0.0
16	0x00000000	0.0
17	0x3f800000	1.0
18	0x3f800000	1.0
19	0x00000000	0.0
20	0x3f800000	1.0
21	0x00000000	0.0
22	0x3f800000	1.0
23	0x00000000	0.0
24	0x00000000	0.0
25	0x00000000	0.0
26	0x3f800000	1.0
27	0x3f800000	1.0
28	0x00000000	0.0
29	0x00000000	0.0
30	0x3f800000	1.0
31	0x00000000	0.0
32	0x3f800000	1.0
33	0x3f800000	1.0
34	0x00000000	0.0
35	0x3f800000	1.0
36	0x3f800000	1.0
37	0x00000000	0.0
38	0x00000000	0.0
39	0x3f800000	1.0
40	0x00000000	0.0
41	0x00000000	0.0
42	0x00000000	0.0
43	0x00000000	0.0
44	0x3f800000	1.0
45	0x3f800000	1.0
46	0x00000000	0.0
47	0x3f800000	1.0
48	0x00000000	0.0
49	0x3f800000	1.0
50	0x3f800000	1.0
51	0x00000000	0.0
52	0x00000000	0.0
53	0x3f800000	1.0
54	0x00000000	0.0
55	0x00000000	0.0
56	0x3f800000	1.0
57	0x3f800000	1.0
58	0x00000000	0.0
59	0x3f800000	1.0
60	0x3f800000	1.0
61	0x00000000	0.0
62	0x3f800000	1.0
63	0x00000000	0.0
64	0x00000000	0.0
65	0x3f800000	1.0
66	0x00000000	0.0
67	0x3f800000	1.0
68	0x00000000	0.0
69	0x00000000	0.0
70	0x3f800000	1.0
71	0x00000000	0.0
72	0x3f800000	1.0
73	0x00000000	0.0
74	0x00000000	0.0
75	0x00000000	0.0
76	0x00000000	0.0
77	0x3f800000	1.0
78	0x3f800000	1.0
79	0x00000000	0.0
80	0x00000000	0.0
81	0x00000000	0.0
82	0x00000000	0.0
83	0x3f800000	1.0

exp_avg f4 [45, 28]
0	0xbad3759a	-0.001613307
1	0x3bb7256c	0.005589178
2	0xbb720dc8	-0.0036934484
3	0xbb125623	-0.0022329174
4	0xbb12b56a	-0.0022385963
5	0xbb0ced1e	-0.0021503638
6	0xbb658645	-0.0035022658
7	0xbae3f7cc	-0.0017392575
8	0xb9dfaa6c	-0.0004266085
9	0x38834918	6.2601815e-05
10	0xbb723eba	-0.0036963657
11	0x39f419da	0.00046558568
12	0xb98a823b	-0.0002641844
13	0xba9e55f8	-0.0012080064
14	0xb9d26da9	-0.00040136024
15	0xbac28f04	-0.0014843647
16	0xbc09e784	-0.008417014
17	0xbba36d72	-0.004987412
18	0x3ae80b03	0.0017703477
19	0xbb82ffee	-0.0039977944
20	0x3b41f498	0.0029595252
21	0xbb51f30d	-0.0032035739
22	0x3bdf090e	0.0068064993
23	0x3ba73518	0.005102765
24	0x3b45b667	0.0030168535
25	0xbb869e81	-0.0041082506
26	0xba605b3a	-0.00085585157
27	0xbb25cf98	-0.0025300737
28	0xbb1e28e5	-0.0024133262
29	0xbb0bd271	-0.002133515
30	0x38c286ee	9.2757735e-05
31	0xbb640a79	-0.0034796281
32	0x3b4186ef	0.002952989
33	0x3a94da40	0.0011356547
34	0x3b3bad60	0.0028637275
35	0xbbd5ea5e	-0.006528183
36	0xbbbbac04	-0.005727293
37	0x39cca34a	0.00039031572
38	0x3b78f74c	0.0037989197
39	0xbad3b5c2	-0.001615219
40	0xbb1aa8fa	-0.0023599253
41	0xbb958ac8	-0.004563663
42	0x3955ccbe	0.00020389535
43	0x3b4d9a29	0.0031372404
44	0x39109b8f	0.0001379086
45	0x3b643b89	0.0034825525
46	0xbb51a7c0	-0.0031990856
47	0x3b3cef6e	0.0028829235
48	0xbb211568	-0.002457941
49	0x3abf0970	0.0014574956
50	0xbb1bc281	-0.0023767056
51	0x3aad9be6	0.0013245314
52	0xbbeff8d5	-0.0073233643
53	0x3b325190	0.002720926
54	0xbb076a76	-0.002066282
55	0x3a86a3f9	0.0010272256
56	0xbb738309	-0.003715696
57	0xbc4623a8	-0.012093462
58	0x3b3a4967	0.00284251
59	0x3bca7458	0.00617842
60	0xb7568520	-1.278639e-05
61	0x3bccdf40	0.0062521994
62	0x3bbbbe21	0.0057294522
63	0xba0b3b8d	-0.0005311303
64	0x3ba92899	0.0051623103
65	0xbb579934	-0.0032897713
66	0xbbb8abb2	-0.005635702
67	0x3baf8fc6	0.0053577153
68	0x3bc47072	0.00599485
69	0xbb0bfad9	-0.0021359234
70	0x3bf039bd	0.0073311017
71	0x3c47f8e8	0.01220534
72	0x3c84b591	0.016199859
73	0x3bdea42f	0.0067944746
74	0xbc290d58	-0.010318123
75	0x3b02a21f	0.0019933057
76	0xbaaad363	-0.0013032969
77	0x3c34a067	0.011024571
78	0xbc45a887	-0.012064106
79	0xbbc8db90	-0.0061296895
80	0x3baa1549	0.0051905257
81	0x3b9fdda1	0.004878715
82	0xbb8de96c	-0.0043308046
83	0x3c00fa71	0.00787221
84	0xbab2c704	-0.0013639634
85	0xbc269024	-0.010166202
86	0x3b232ecc	0.002489972
87	0xbb23a115	-0.0024967839
88	0x3a90b46f	0.0011040102
89	0x3aa089cb	0.0012248097
90	0x3b82a517	0.0039869654
91	0xbaff45a8	-0.0019475715
92	0xbb91fbc0	-0.0044550598
93	0xbb3c1cb0	-0.0028703623
94	0x3b12e3c3	0.0022413589
95	0xbabe1efd	-0.0014505085
96	0xba24f1a5	-0.00062921114
97	0xbb2d6d8b	-0.0026462998
98	0x399110e0	0.00027669128
99	0x3ae209aa	0.0017245312
100	0x3c1536c7	0.009107298
101	0x3bae175a	0.0053128423
102	0xbb6e4db7	-0.003636224
103	0x3b47c266	0.003048086
104	0xbb902542	-0.0043989727
105	0x3b4066b5	0.0029358093
106	0xbc2e76b6	-0.01064842
107	0xbbc8ddc4	-0.006129952
108	0xbbad5ca8	-0.0052905865
109	0x3b8903ef	0.004181377
110	0xbb7f2935	-0.0038934473
111	0x3b0ff9c5	0.0021968943
112	0x3b36588a	0.002782377
113	0xbb8d7edd	-0.004318102
114	0xb7900680	-1.7169164e-05
115	0x39f26f2d	0.0004624067
116	0xbacb2b17	-0.0015500513
117	0xbb36ff4d	-0.0027923167
118	0xbb132da4	-0.0022457624
119	0x3bf5e457	0.007504027
120	0x3b8d08ed	0.0043040426
121	0xbba8d85c	-0.005152745
122	0xbbc2a366	-0.005939889
123	0x3b405b55	0.0029351313
124	0x3b6c7eee	0.0036086398
125	0x3bb91c08	0.0056490935
126	0xba9bd1c0	-0.0011888072
127	0xbb8928fe	-0.004185795
128	0x3bb0be3f	0.005393773
129	0xb9a6d4af	-0.0003182045
130	0x3ba42cfb	0.005010245
131	0xbb96b81a	-0.0045995833
132	0xb9cf91fe	-0.0003959089
133	0xba2e19c5	-0.0006641413
134	0xbb515363	-0.0031940571
135	0xbba30a52	-0.0049755955
136	0x3bca770f	0.0061787437
137	0xbacd135a	-0.0015646026
138	0x39995efc	0.00029253203
139	0xbb069779	-0.0020537062
140	0xbab03d0b	-0.0013445927
141	0xbb1ed328	-0.0024234746
142	0x3b779a39	0.0037781133
143	0x3b31eee3	0.0027150444
144	0x396b480e	0.00022438189
145	0x3bb841a5	0.00562306
146	0x3b9d8959	0.004807633
147	0xbb328614	-0.0027240561
148	0xbb053a5d	-0.0020328977
149	0x3b02202f	0.0019855609
150	0x3bca0c6e	0.0061660325
151	0xbb928663	-0.0044715866
152	0xbaf6a115	-0.0018816317
153	0xbb894495	-0.004189084
154	0x373b183c	1.1151711e-05
155	0x3b8646a1	0.004097775
156	0x3b9a0612	0.0047004307
157	0x3b42db26	0.0029732673
158	0xbbfba9c6	-0.0076801507
159	0x3bc6a2cc	0.0060618874
160	0xbb06126f	-0.0020457765
161	0x3b70fda3	0.0036772273
162	0xbbbf8fb2	-0.0058459872
163	0xbb425665	-0.0029653546
164	0xbb7a4777	-0.003818957
165	0x3bcc7935	0.006240035
166	0xbb0c8372	-0.0021440652
167	0x3bc20c45	0.005921873
168	0x3a6c5066	0.0009014666
169	0xbbc52048	-0.006015811
170	0x3a827e47	0.0009955846
171	0x3a40aeee	0.00073502853
172	0x3b074b39	0.0020644201
173	0x3a06f8d0	0.000514877
174	0x3ab13ba2	0.00135218
175	0x3a47999d	0.0007614138
176	0x3a21d19d	0.00061728974
177	0xbb07d5ca	-0.0020726793
178	0xb9ee56ff	-0.00045459715
179	0x3a051522	0.00050766964
180	0x3ae580de	0.0017509719
181	0x3affad2d	0.0019506566
182	0xba48404f	-0.0007638977
183	0x3ab813da	0.0014044002
184	0x3be9c766	0.007134366
185	0x3b8a5ce7	0.0042225006
186	0xbb2f4e38	-0.0026749503
187	0x3a1b4070	0.00059223827
188	0xbb8bc3dc	-0.0042652916
189	0x3b204360	0.002445422
190	0xbbd0994a	-0.0063659297
191	0xbb905b55	-0.004405419
192	0xbaf53414	-0.0018707537
193	0x3ae9ef7a	0.0017847859
194	0x3a08da49	0.00052205153
195	0x3a766a24	0.00093999715
196	0xbb0f1438	-0.002183212
197	0x3b9fb8bb	0.0048743165
198	0xbb1e4eaa	-0.0024155774
199	0xbab11b8e	-0.001351224
200	0x3afac1bb	0.0019131223
201	0x38faaaed	0.00011952766
202	0xba3b4511	-0.00071437756
203	0xbbe0085f	-0.0068369354
204	0xbb36267d	-0.0027793937
205	0x3b614680	0.0034374297
206	0x3b07a581	0.0020698013
207	0xbae5f1cb	-0.0017543373
208	0xbb197730	-0.0023416989
209	0xbb35a6dc	-0.0027717864
210	0xba27bed2	-0.0006398979
211	0x3b15e5fb	0.0022872675
212	0xbbe9f535	-0.0071398267
213	0xba06bbc7	-0.00051396753
214	0xbb54a9fa	-0.0032449947
215	0x3a25c330	0.00063233357
216	0xba63ec31	-0.0008694558
217	0xba4c4118	-0.0007791682
218	0x3b9796c3	0.0046261265
219	0x3bb0e12d	0.005397937
220	0xbba76dc4	-0.0051095206
221	0xbaa6b470	-0.001271857
222	0x3a942f67	0.0011305631
223	0xba539377	-0.0008070985
224	0xbac3d7f7	-0.0014941682
225	0x3a3f93fe	0.00073081243
226	0xbac6b92d	-0.0015161388
227	0x39e2eb03	0.00043281176
228	0xbb228300	-0.002479732
229	0x3a21f853	0.0006178666
230	0xba67d3fd	-0.00088435394
231	0x3a90aa57	0.0011037093
232	0x3ac10844	0.0014727195
233	0xbb478f22	-0.0030450304
234	0xbbb1da8b	-0.0054276637
235	0x3b0656d6	0.0020498536
236	0x3b2dc07a	0.002651243
237	0xba65b884	-0.0008763152
238	0x3a5d6cf4	0.0008446716
239	0x3a92db85	0.0011204338
240	0xba4f741c	-0.0007913725
241	0xbb292990	-0.0025812127
242	0x388439d5	6.3050225e-05
243	0xbb7436b3	-0.0037264049
244	0x3b22e563	0.0024855963
245	0x39e5ad47	0.00043807385
246	0x3abc4485	0.0014363682
247	0x3a8ab371	0.0010582042
248	0x3be7481c	0.0070581567
249	0xb9bd8c4a	-0.00036153413
250	0xbb53cad8	-0.003231695
251	0x3a25c307	0.0006323312
252	0x39b40b2f	0.00034340608
253	0x3a6e48fe	0.0009089856
254	0x3afce526	0.0019294366
255	0x3b2c844c	0.0026323972

exp_avg_sq f4 [45, 28]
0	0x36d00304	6.199234e-06
1	0x36c8a4cd	5.97965e-06
2	0x36dd2eff	6.5917843e-06
3	0x3720617b	9.55944e-06
4	0x37293611	1.0085773e-05
5	0x366e71d9	3.5531032e-06
6	0x36f2df15	7.238132e-06
7	0x37032e1f	7.818947e-06
8	0x36fb07d6	7.481295e-06
9	0x35a2224c	1.2079922e-06
10	0x36bb468f	5.5812484e-06
11	0x37343223	1.0740509e-05
12	0x3654cf23	3.1711031e-06
13	0x36996ce4	4.572432e-06
14	0x36c98807	6.0061025e-06
15	0x3703c910	7.855022e-06
16	0x37604be1	1.3369107e-05
17	0x374ae907	1.2094394e-05
18	0x36dc3c92	6.5635622e-06
19	0x36eac946	6.9971748e-06
20	0x369ca2cd	4.668115e-06
21	0x36b47cfa	5.378967e-06
22	0x3703e327	7.8610965e-06
23	0x3694cee6	4.43483e-06
24	0x3680f7e3	3.843555e-06
25	0x36d6a6ce	6.3971156e-06
26	0x36dfbb6a	6.6677358e-06
27	0x360fa3a7	2.1403919e-06
28	0x35df059a	1.6616425e-06
29	0x35a8fc04	1.2590322e-06
30	0x35629aba	8.441672e-07
31	0x35e8a765	1.7334065e-06
32	0x3653bf04	3.1552636e-06
33	0x34dee48a	4.1517006e-07
34	0x35f125b4	1.7966872e-06
35	0x367cd302	3.767375e-06
36	0x364acfe8	3.0221363e-06
37	0x34c04c73	3.581841e-07
38	0x36375726	2.7319852e-06
39	0x360c90b5	2.0945856e-06
40	0x354f30d7	7.718458e-07
41	0x35d6dad9	1.6007936e-06
42	0x359ab2d1	1.1525937e-06
43	0x360e36d2	2.1191559e-06
44	0x35a0c6f7	1.1978835e-06
45	0x3634613f	2.6878695e-06
46	0x35f53664	1.8269752e-06
47	0x361b3c8a	2.3132038e-06
48	0x3587c113	1.0114476e-06
49	0x353acf64	6.959219e-07
50	0x35ceeade	1.5416551e-06
51	0x35497267	7.504481e-07
52	0x3683f688	3.9328042e-06
53	0x35a35b51	1.2171023e-06
54	0x35d3e992	1.5788703e-06
55	0x34849ea7	2.470235e-07
56	0x375a9cd2	1.3030325e-05
57	0x3788aef8	1.629394e-05
58	0x37764b4f	1.4680277e-05
59	0x37c87250	2.3895089e-05
60	0x377afab5	1.49595335e-05
61	0x3781744c	1.5432153e-05
62	0x37a0adba	1.9154384e-05
63	0x376063e2	1.3374696e-05
64	0x37d6b51e	2.5595127e-05
65	0x365c6a21	3.284433e-06
66	0x3712501e	8.720932e-06
67	0x37da858c	2.6049813e-05
68	0x371247eb	8.719023e-06
69	0x370e1d55	8.470689e-06
70	0x37dbdb27	2.6208885e-05
71	0x37fff855	3.0514007e-05
72	0x38126e5c	3.4911893e-05
73	0x37d01c69	2.4808762e-05
74	0x37794cb7	1.4859418e-05
75	0x3737b1af	1.094902e-05
76	0x37520d89	1.2520127e-05
77	0x37c9f662	2.4075798e-05
78	0x3795c44d	1.7853594e-05
79	0x36f9027a	7.4210666e-06
80	0x37386f57	1.0993178e-05
81	0x378fef5c	1.7158389e-05
82	0x3760d5f5	1.3401256e-05
83	0x371d650b	9.381455e-06
84	0x3752c005	1.2561683e-05
85	0x3750f99a	1.2455881e-05
86	0x36e3b035	6.7856404e-06
87	0x37488ddf	1.1953961e-05
88	0x37936813	1.7572229e-05
89	0x3647e702	2.9787775e-06
90	0x3709b303	8.207516e-06
91	0x375dc692	1.321886e-05
92	0x3733baa4	1.0712687e-05
93	0x36109c31	2.1548587e-06
94	0x3709292a	8.175421e-06
95	0x3785c688	1.5947284e-05
96	0x36b2f548	5.333368e-06
97	0x370ee7b1	8.517804e-06
98	0x36faccb8	7.474413e-06
99	0x3718a3b5	9.098022e-06
100	0x377cf77c	1.5077992e-05
101	0x377e0de8	1.5142818e-05
102	0x3741a7f7	1.1542804e-05
103	0x370d0d14	8.4073e-06
104	0x36d98cee	6.4835103e-06
105	0x36a05666	4.7784297e-06
106	0x3761d5f3	1.3460859e-05
107	0x36e772c2	6.897696e-06
108	0x36d74f96	6.4167643e-06
109	0x36d38072	6.303243e-06
110	0x3751dfa5	1.2509442e-05
111	0x35d5f194	1.5940045e-06
112	0x36daaa82	6.516756e-06
113	0x36849b1b	3.951963e-06
114	0x363d198d	2.8178067e-06
115	0x36e0c391	6.698487e-06
116	0x36f33b19	7.248844e-06
117	0x35f91700	1.855864e-06
118	0x364afd88	3.024792e-06
119	0x3776f3d6	1.4719515e-05
120	0x37170fee	9.00401e-06
121	0x3649b28c	3.0055262e-06
122	0x36b75ed1	5.464863e-06
123	0x3728ca3b	1.0060666e-05
124	0x368492fe	3.9510187e-06
125	0x36ffbd96	7.621663e-06
126	0x36575868	3.2088956e-06
127	0x36ab420f	5.1038874e-06
128	0x36e9b521	6.9650273e-06
129	0x36bad678	5.5681994e-06
130	0x371b5a56	9.259753e-06
131	0x36a88e81	5.02338e-06
132	0x363ee7f0	2.8447212e-06
133	0x35ed8474	1.7696425e-06
134	0x3683bcd2	3.926086e-06
135	0x3637ebeb	2.7406447e-06
136	0x3709e3b6	8.218854e-06
137	0x360fc9f4	2.1426213e-06
138	0x36aeff6f	5.2153405e-06
139	0x3583169f	9.766844e-07
140	0x34e2cedf	4.22463e-07
141	0x3530d7cf	6.587915e-07
142	0x36171060	2.2510285e-06
143	0x35b7fa2a	1.370737e-06
144	0x34b8590d	3.4337464e-07
145	0x368b1a36	4.145574e-06
146	0x367040c9	3.5800497e-06
147	0x3581205f	9.62067e-07
148	0x34c21ea9	3.6157624e-07
149	0x348384eb	2.4497362e-07
150	0x3641ee58	2.8897975e-06
151	0x3591cde6	1.0863266e-06
152	0x3493ecf3	2.7553287e-07
153	0x358bb509	1.0408995e-06
154	0x354c4322	7.6093613e-07
155	0x364d57bb	3.0598446e-06
156	0x363da3b6	2.8258487e-06
157	0x35fac1f6	1.8682902e-06
158	0x364f7321	3.0912418e-06
159	0x365adfdc	3.2614835e-06
160	0x34d00dd7	3.875309e-07
161	0x361d3be6	2.3429689e-06
162	0x366168a5	3.3588524e-06
163	0x35728da7	9.0358157e-07
164	0x35624c89	8.4302934e-07
165	0x36aea0b5	5.204313e-06
166	0x35188ee6	5.6832357e-07
167	0x36685ae4	3.46236e-06
168	0x34efa007	4.4633654e-07
169	0x36205cd2	2.3895886e-06
170	0x344cd223	1.9075428e-07
171	0x351bfc07	5.810875e-07
172	0x359f983d	1.189073e-06
173	0x33cd0b13	9.548071e-08
174	0x3469dedc	2.1780892e-07
175	0x34f04b4f	4.4758278e-07
176	0x3522ebf0	6.0693037e-07
177	0x350c692e	5.230712e-07
178	0x34b9df7f	3.462155e-07
179	0x35557b88	7.9528445e-07
180	0x3548755e	7.46766e-07
181	0x35a54dba	1.2316079e-06
182	0x34a0bf60	2.9941566e-07
183	0x34f3e1a3	4.542645e-07
184	0x36044c0c	1.9713798e-06
185	0x35bf8d74	1.4271777e-06
186	0x351c9c2b	5.8341783e-07
187	0x34a70d52	3.1115866e-07
188	0x35b8fd40	1.3782774e-06
189	0x34d736d1	4.0086755e-07
190	0x362e09b3	2.5933666e-06
191	0x35ff5f31	1.9026685e-06
192	0x34ee0a80	4.4338594e-07
193	0x34827652	2.4300476e-07
194	0x354d3213	7.644132e-07
195	0x338a7035	6.446536e-08
196	0x369088aa	4.307444e-06
197	0x3684f570	3.9624792e-06
198	0x36047179	1.9735583e-06
199	0x36856600	3.9755832e-06
200	0x3685cbb1	3.9874217e-06
201	0x3536c30e	6.8084125e-07
202	0x3596ec46	1.1244636e-06
203	0x37280378	1.0014388e-05
204	0x36913e3b	4.3285813e-06
205	0x35dff1b4	1.668514e-06
206	0x36101463	2.1469539e-06
207	0x369661c5	4.4817302e-06
208	0x35d80f1e	1.6097654e-06
209	0x365b17c6	3.264738e-06
210	0x35b33fa8	1.3355066e-06
211	0x362f31e2	2.6106068e-06
212	0x36b9c590	5.536429e-06
213	0x362a69de	2.5393597e-06
214	0x36a21954	4.830925e-06
215	0x35fa5b2e	1.8652988e-06
216	0x35ce7b1d	1.5384027e-06
217	0x35440757	7.302637e-07
218	0x3687bb40	4.0451123e-06
219	0x3644a1bd	2.930042e-06
220	0x369025f5	4.295953e-06
221	0x3598eeec	1.1394418e-06
222	0x366aaa3e	3.4967811e-06
223	0x34a021f6	2.9827032e-07
224	0x35b59bd5	1.3530904e-06
225	0x359cc540	1.1680313e-06
226	0x35f79f1a	1.8449239e-06
227	0x365a7b6f	3.255638e-06
228	0x3602f67b	1.951498e-06
229	0x362c05bf	2.5633342e-06
230	0x35fe1d5b	1.8933018e-06
231	0x361ee703	2.3678301e-06
232	0x3687a8a8	4.0429477e-06
233	0x3582d590	9.74791e-07
234	0x361c3718	2.327788e-06
235	0x36799d98	3.7195623e-06
236	0x35af91b6	1.3080924e-06
237	0x356b7718	8.7717626e-07
238	0x3681fbb0	3.8738e-06
239	0x363af0f0	2.7856404e-06
240	0x36705e20	3.5817575e-06
241	0x3619340d	2.2829074e-06
242	0x35ff3344	1.9013901e-06
243	0x35a3175b	1.2151244e-06
244	0x363cb1af	2.8117609e-06
245	0x362a6004	2.5387862e-06
246	0x357d5d0d	9.438525e-07
247	0x35377b79	6.835249e-07
248	0x36ccb62f	6.1008827e-06
249	0x3638677a	2.7478368e-06
250	0x36148231	2.21295e-06
251	0x35941b5a	1.103482e-06
252	0x3511bff0	5.4296015e-07
253	0x34a632da	3.095691e-07
254	0x3616b766	2.2458494e-06
255	0x361de247	2.3526534e-06

exp_avg f4 [45]
0	0xbb12773e	-0.0022348906
1	0xbbe0905c	-0.0068531465
2	0xbc69ec7d	-0.014277575
3	0xbbb1dcd0	-0.005427934
4	0x3c0fa10d	0.008766425
5	0xbc056f19	-0.0081441635
6	0x3af9da91	0.001906233
7	0xbb7eeea6	-0.003889957
8	0xbb981dbf	-0.004642218
9	0xb79fd5aa	-1.9053772e-05
10	0x3c80d7d0	0.015727907
11	0x3c2ce3e5	0.010552381
12	0x3cb08e92	0.021552358
13	0xbba40ef6	-0.0050066663
14	0x39727f65	0.00023126377
15	0xbc18dddb	-0.009330238
16	0xbc246daf	-0.010035916
17	0xbcbb08de	-0.022831377
18	0xbad65dfc	-0.0016354914
19	0x3b5bc56a	0.0033534416
20	0xbc4d7810	-0.012540832
21	0xb76d4a20	-1.4143559e-05
22	0x3c40bb27	0.011763371
23	0xb82b07a0	-4.077668e-05
24	0x3c1a3fa5	0.009414588
25	0x3bb6680a	0.0055666016
26	0xbc222db6	-0.009898594
27	0x3bddeed5	0.0067728558
28	0xbb31e857	-0.0027146542
29	0x3c71ba7e	0.014753936
30	0xbbdac49f	-0.006676271
31	0xbb28dcaa	-0.0025766292
32	0xbc82421d	-0.015900666
33	0x3ca49df3	0.020094847
34	0x3bc9335b	0.0061401553
35	0xbc724315	-0.014786501
36	0x3c20a4bc	0.009804901
37	0xbc009b48	-0.007849522
38	0x3c833cae	0.016020145
39	0x3bc21c4f	0.005923785
40	0x3c2ec8fd	0.0106680365
41	0x3bf7078e	0.0075387424
42	0x3a17eb6e	0.00057952746
43	0x3b75a9e2	0.0037485291
44	0x3b957377	0.0045608836

exp_avg_sq f4 [45]
0	0x3762228f	1.3478696e-05
1	0x36992a08	4.5646484e-06
2	0x380b2537	3.317484e-05
3	0x37d7dd83	2.5733147e-05
4	0x37bd88d1	2.2594266e-05
5	0x36aa0cee	5.0679e-06
6	0x3603bb8e	1.9629692e-06
7	0x37353082	1.0799735e-05
8	0x367a3124	3.7281507e-06
9	0x359de9e3	1.1765482e-06
10	0x3836b665	4.356205e-05
11	0x37a199be	1.9264287e-05
12	0x37fefc43	3.0396628e-05
13	0x36ea2b31	6.9787716e-06
14	0x36acd16b	5.150379e-06
15	0x36ebec14	7.031029e-06
16	0x3700445e	7.6453125e-06
17	0x3811c6e3	3.475592e-05
18	0x359f0f31	1.1850844e-06
19	0x364998e6	3.0040333e-06
20	0x371cc9fe	9.345355e-06
21	0x36aaad4e	5.08657e-06
22	0x37aaced8	2.0361898e-05
23	0x35f66361	1.8357351e-06
24	0x375d8b1a	1.3205014e-05
25	0x376f6c5c	1.42707395e-05
26	0x3715a8c0	8.920382e-06
27	0x36def781	6.644929e-06
28	0x37029fbc	7.785795e-06
29	0x3786f8fb	1.6089985e-05
30	0x376410d3	1.3593776e-05
31	0x37a004a1	1.9075642e-05
32	0x37832908	1.5635524e-05
33	0x3814c305	3.5467576e-05
34	0x375c6a10	1.3137716e-05
35	0x38a2aaaf	7.756554e-05
36	0x3722cde2	9.703888e-06
37	0x36427a2c	2.8979366e-06
38	0x3799d61f	1.833873e-05
39	0x37da3faa	2.6017271e-05
40	0x372e110f	1.037518e-05
41	0x3723fc6e	9.7743305e-06
42	0x37317b9c	1.0578802e-05
43	0x36b3a1a5	5.3534336e-06
44	0x38c1ca9b	9.240695e-05

exp_avg f4 [3, 45]
0	0xbcee2a10	-0.029072791
1	0xba91ea9f	-0.0011132545
2	0x3a7e4085	0.0009698945
3	0x3ba1ca16	0.0049374206
4	0x3c89d6dc	0.016826086
5	0x3c753f1e	0.014968662
6	0x3c2426c5	0.010019009
7	0xbaad6b93	-0.0013230912
8	0x3b5464c7	0.00324087
9	0xba987cbe	-0.0011633856
10	0xbc8b896e	-0.017033305
11	0xbcb42196	-0.021988671
12	0xbc671ab4	-0.014105488
13	0xbb6b6b3b	-0.0035922069
14	0x3c1ffebc	0.009765323
15	0xbc0cf586	-0.008603459
16	0xbb18bab4	-0.0023304643
17	0xbca8767e	-0.020564314
18	0xbb132098	-0.0022449847
19	0x3cc5e1d5	0.024155537
20	0xbca709b6	-0.020390373
21	0x3c0e7ead	0.008697194
22	0xbbe5783d	-0.007002859
23	0x3c26b723	0.010175499
24	0xbc16b29b	-0.009197856
25	0x3b8cb24e	0.0042937165
26	0xbb894793	-0.0041894405
27	0xbb8641dc	-0.0040972065
28	0xbb949030	-0.00453379
29	0xbc66ccd0	-0.014086917
30	0xbc153c7c	-0.009108659
31	0x3cadb893	0.021206176
32	0xbb767059	-0.0037603586
33	0xbc113254	-0.008862097
34	0xb9cb18af	-0.00038737568
35	0x3badb029	0.005300541
36	0xbb884b37	-0.004159357
37	0xbb378426	-0.002800235
38	0xbc1fe1c8	-0.00975842
39	0x3cb7ba14	0.022427596
40	0x3c94df76	0.01817296
41	0xbb830120	-0.003997937
42	0xbc45aa8f	-0.01206459
43	0xba9e35f8	-0.0012070527
44	0x3b64ed2b	0.0034931402
45	0x3b9ef58f	0.00485105
46	0xbbd5bfe0	-0.0065231174
47	0x3c244741	0.010026754
48	0x3c679815	0.01413538
49	0xbc2fe3b8	-0.010735445
50	0x3be264d8	0.006908994
51	0x3c104c1d	0.008807209
52	0x3c7d2f3f	0.015453159
53	0xbb8f5e0a	-0.004375224
54	0x388fb1d4	6.8518944e-05
55	0x3c10f90f	0.008848443
56	0xbbcfa1fd	-0.006336449
57	0x3be21cda	0.006900412
58	0x391a32e6	0.00014705546
59	0x3bd25c4b	0.0064196936
60	0xbc0091c4	-0.007847253
61	0x3d013a9a	0.031550027
62	0x3d127dea	0.035764612
63	0xbcb7f6a9	-0.022456484
64	0x3c50998e	0.012731923
65	0xbbea2c1b	-0.007146371
66	0x3bae0477	0.005310591
67	0x3c092999	0.008371734
68	0xbc547826	-0.012968099
69	0xbbbe91f3	-0.0058157383
70	0xbc2b6cf5	-0.010462989
71	0x3c46abab	0.01212589
72	0x3bc5d1e0	0.006036982
73	0xbc8530c8	-0.016258612
74	0xbcdc94f9	-0.026926504
75	0xbbaaa3c0	-0.005207509
76	0x3c7677e7	0.015043235
77	0x3a5e525c	0.00084809004
78	0x3be5e416	0.0070157154
79	0x3c501ef6	0.012702694
80	0xbb83bcda	-0.0040203156
81	0x3c4cb7f7	0.0124950325
82	0x3c7156f3	0.014730203
83	0xb85f9070	-5.330186e-05
84	0x3c0ed970	0.008718833
85	0x3c04bb04	0.008101229
86	0xbc624224	-0.0138097145
87	0x3caf832d	0.021424854
88	0x3b699f65	0.0035647985
89	0x3b0d62aa	0.00215737
90	0x3b6263b2	0.0034544286
91	0xbc846e24	-0.0161658
92	0xbc8f50ba	-0.017494548
93	0xbcbbf3ac	-0.02294334
94	0xbcbe5a76	-0.023236495
95	0x3bd32602	0.00644374
96	0xbc5cbb07	-0.013472325
97	0x3cff7eea	0.031188447
98	0x3c49e3e1	0.012322397
99	0x3d0e35dd	0.034719337
100	0x3d24430a	0.040102996
101	0x3d1ef00c	0.038803145
102	0x3d2d06a0	0.042242646
103	0x3cb5fa53	0.02221409
104	0x3cb82e73	0.022483086
105	0xbca5489c	-0.020176224
106	0xbc20ccb9	-0.009814435
107	0xbd2e9512	-0.042622633
108	0x3ac11365	0.0014730511
109	0xbc628a27	-0.013826883
110	0xbc0640fe	-0.008194206
111	0x3c93ae15	0.018027345
112	0x3afd1606	0.0019308932
113	0x3d044d33	0.032300185
114	0x3bcb4280	0.006202996
115	0xbbd5d15a	-0.006525201
116	0xbc5cd539	-0.013478571
117	0x3cc3dda7	0.023909403
118	0x3ccd60f6	0.025070649
119	0x3d563976	0.052300893
120	0x3caefa6e	0.021359649
121	0xbd6c7887	-0.05773213
122	0xbd3a092c	-0.045418903
123	0x3caa0d84	0.020758398
124	0x3b209539	0.0024503006
125	0x3d348bb8	0.04407856
126	0xbb889863	-0.0041685565
127	0xbcfb7cb8	-0.030699119
128	0x3d06cb56	0.03290876
129	0xbd40830f	-0.046999987
130	0xb9e0e09a	-0.0004289195
131	0x3c5fd937	0.013662628
132	0x3c1fa7b9	0.009744578
133	0xbc143d26	-0.009047782
134	0x3c7d2cea	0.015452603

exp_avg_sq f4 [3, 45]
0	0x3885a41c	6.372502e-05
1	0x36152644	2.2225004e-06
2	0x346a7363	2.1834926e-07
3	0x36b73c59	5.4608504e-06
4	0x382f52cf	4.1800373e-05
5	0x379278f6	1.7460883e-05
6	0x36caab6f	6.0400266e-06
7	0x371eb74c	9.460211e-06
8	0x36f8bc47	7.4128943e-06
9	0x35feb497	1.8977033e-06
10	0x37d9dc32	2.5970952e-05
11	0x37e118e8	2.6833688e-05
12	0x379e46ea	1.886809e-05
13	0x35261a3e	6.1878006e-07
14	0x3742f24f	1.1619718e-05
15	0x37ce3085	2.4579707e-05
16	0x373be344	1.1198983e-05
17	0x386bc6d4	5.621354e-05
18	0x35abb4b6	1.2793087e-06
19	0x38a99cf6	8.087784e-05
20	0x379cef12	1.8707975e-05
21	0x37243230	9.786847e-06
22	0x36bb8708	5.588754e-06
23	0x37445019	1.170116e-05
24	0x3696b974	4.491938e-06
25	0x36aa5183	5.075884e-06
26	0x36a3d0e7	4.882098e-06
27	0x36f03be4	7.1595296e-06
28	0x3662762c	3.374541e-06
29	0x379f8eef	1.9020836e-05
30	0x378b6861	1.6618696e-05
31	0x3781cc4b	1.547313e-05
32	0x3744db92	1.1733633e-05
33	0x3757d98b	1.2865649e-05
34	0x371ba4fb	9.277132e-06
35	0x376bb85a	1.4050014e-05
36	0x36d6b49b	6.3987222e-06
37	0x37470433	1.1862302e-05
38	0x3642f3e2	2.9050211e-06
39	0x3805fa65	3.194287e-05
40	0x378cd3b2	1.6787879e-05
41	0x366cc5b8	3.5281828e-06
42	0x37e59830	2.7369795e-05
43	0x370eaf54	8.504681e-06
44	0x35beded2	1.4220952e-06
45	0x379bed51	1.8587949e-05
46	0x37870a72	1.6098118e-05
47	0x3703d70f	7.858281e-06
48	0x38be22b2	9.0663685e-05
49	0x395ba963	0.00020948569
50	0x388c5b77	6.692757e-05
51	0x3738dd45	1.1018773e-05
52	0x38f0709c	0.00011465067
53	0x3727f07a	1.0009966e-05
54	0x37512557	1.2466065e-05
55	0x3899f7e5	7.3417825e-05
56	0x37139d5d	8.798522e-06
57	0x3760ac86	1.3391609e-05
58	0x37052cc2	7.937839e-06
59	0x378e96e6	1.6997987e-05
60	0x396bc978	0.000224864
61	0x398c6b12	0.00026782654
62	0x392f4a99	0.0001671709
63	0x37e452c0	2.7218251e-05
64	0x397c1f25	0.00024044195
65	0x3813147b	3.5066605e-05
66	0x388f3d5d	6.830201e-05
67	0x38908920	6.8919966e-05
68	0x38ec9518	0.00011281128
69	0x37cb1323	2.4208397e-05
70	0x37b75656	2.1855503e-05
71	0x37cbcfc0	2.4296227e-05
72	0x38920156	6.962071e-05
73	0x38aa57aa	8.1225604e-05
74	0x38bd2e4b	9.020845e-05
75	0x38ee9369	0.00011376182
76	0x38a458eb	7.836692e-05
77	0x369900d0	4.55985e-06
78	0x3898e858	7.291202e-05
79	0x393ebd65	0.00018190367
80	0x395af8e2	0.00020882816
81	0x383b6b07	4.468395e-05
82	0x39141bdc	0.00014124758
83	0x35d7cd69	1.607853e-06
84	0x38666e1d	5.4938824e-05
85	0x37d01d4e	2.4809178e-05
86	0x383c388e	4.4875364e-05
87	0x38490105	4.7923084e-05
88	0x390b9c4e	0.00013314301
89	0x37926d4d	1.7455453e-05
90	0x37b1411f	2.1130369e-05
91	0x37497512	1.2007791e-05
92	0x37bdbbed	2.2618065e-05
93	0x38d9a39f	0.00010377843
94	0x38dd0855	0.00010539653
95	0x38687086	5.5417906e-05
96	0x386816dd	5.5334403e-05
97	0x396ec4be	0.00022770741
98	0x38143965	3.5339403e-05
99	0x3968bcd0	0.00022195582
100	0x393ea4d7	0.0001818122
101	0x38d6f1e3	0.0001024937
102	0x3848368a	4.773451e-05
103	0x38a03630	7.639488e-05
104	0x39025e26	0.00012432839
105	0x390e6db7	0.00013583047
106	0x38c92fde	9.593343e-05
107	0x3912fd3f	0.00014017987
108	0x36b2a79f	5.324327e-06
109	0x391a11c9	0.0001469321
110	0x382edef0	4.169246e-05
111	0x388cc9ec	6.713331e-05
112	0x38106411	3.442547e-05
113	0x39270e55	0.000159317
114	0x38069f98	3.2096723e-05
115	0x37e1eeac	2.693323e-05
116	0x3742ee50	1.16187875e-05
117	0x38313824	4.2252374e-05
118	0x3941e74a	0.00018492076
119	0x394429f1	0.00018707641
120	0x39031763	0.00012501846
121	0x39fdd98a	0.00048418
122	0x38f45134	0.00011649952
123	0x386ebe7c	5.6921024e-05
124	0x38b5f025	8.675483e-05
125	0x39fe4661	0.00048499092
126	0x390b1397	0.00013263371
127	0x391ea592	0.00015129734
128	0x37fe4c50	3.0314695e-05
129	0x3998a206	0.00029112416
130	0x37cf8abe	2.474093e-05
131	0x38801d11	6.10893e-05
132	0x380549ff	3.1778585e-05
133	0x3910bd0f	0.0001380334
134	0x38946bde	7.077282e-05

exp_avg f4 [3]
0	0xbc0974a6	-0.008389628
1	0xbd09dba0	-0.033656716
2	0xbde6f9ef	-0.1127814

exp_avg_sq f4 [3]
0	0x3832f1df	4.2663767e-05
1	0x3a3acd9b	0.00071259745
2	0x3a7cfc16	0.0009650601

exp_avg f4 [3, 45]
0	0x3b4952d9	0.0030719547
1	0x3ae9cdae	0.0017837787
2	0xbb4a5dab	-0.0030878584
3	0x3b9515db	0.0045497245
4	0x3be1601a	0.0068779113
5	0xbbe14b9d	-0.006875469
6	0xbbc70245	-0.0060732686
7	0xba8e2658	-0.0010845168
8	0xbbb46e0b	-0.005506282
9	0xb9dc8af6	-0.00042065204
10	0xbc181784	-0.00928295
11	0x3c4fc428	0.012681045
12	0xbb7b4283	-0.0038339205
13	0xbc71995e	-0.014746038
14	0xba9bd41f	-0.0011888779
15	0x3b88cf59	0.0041751084
16	0xbad36adc	-0.0016129869
17	0xbc784d42	-0.015155138
18	0xbc068d91	-0.008212463
19	0xbc783431	-0.015149162
20	0x3bec5840	0.0072126687
21	0xbaf7c3bf	-0.0018902941
22	0x3c09a2e7	0.008400655
23	0xbc2876c6	-0.010282224
24	0xbb70d200	-0.0036746264
25	0x3b1ec31d	0.0024225183
26	0xbbee1e80	-0.0072668195
27	0x3a39ddec	0.0007090259
28	0xb956e66d	-0.0002049447
29	0x3ca75b9d	0.020429427
30	0x39c94fa4	0.00038397044
31	0xbc05b8b9	-0.008161717
32	0xbbdcc609	-0.006737475
33	0x3bb82a55	0.0056202807
34	0xbbc1be48	-0.005912576
35	0x3bc92148	0.0061380006
36	0xbc9f58d4	-0.019451536
37	0xb90ca422	-0.00013412585
38	0x3bbd198a	0.0057708668
39	0x3aa84599	0.0012838125
40	0xbb0420a9	-0.0020161069
41	0x3b7e2bce	0.0038783434
42	0xbc303322	-0.0107543785
43	0xbb776686	-0.0037750318
44	0x3b2cd32b	0.0026370983
45	0xbbe7185b	-0.007052464
46	0xba941ac6	-0.0011299483
47	0xbc175b32	-0.009238051
48	0x3bf5a35f	0.007496282
49	0x3c1f27c0	0.009714067
50	0x3b539aaa	0.0032288232
51	0x3b91494e	0.0044337874
52	0xbc00a96f	-0.007852896
53	0xbaf3c7fb	-0.0018599028
54	0xbbbac84b	-0.0057001463
55	0xba650b4b	-0.00087373395
56	0xbb885925	-0.0041610175
57	0xb99e39bc	-0.00030179124
58	0x3c04b026	0.008098638
59	0x3acba860	0.001553785
60	0x3bfa1e80	0.0076330304
61	0x3b80f6d6	0.003935675
62	0x3ba89965	0.005145239
63	0x3c051204	0.008121971
64	0x3b092f48	0.0020932723
65	0xb91129ba	-0.00013843822
66	0xbb660b66	-0.003510201
67	0xbc274bd3	-0.010210949
68	0xbc197faa	-0.009368816
69	0xbc09f9f8	-0.008421414
70	0x3b5c1bf4	0.0033585997
71	0x3bc24b09	0.005929355
72	0xbb758afa	-0.003746687
73	0xbc8f72b1	-0.017510744
74	0xbc85c72c	-0.016330324
75	0xbbd30511	-0.006439813
76	0x3cb54db0	0.02213177
77	0x3c94e986	0.018177759
78	0x3a4e85b0	0.00078781974
79	0x3b5f170c	0.0034040837
80	0xbc421c04	-0.0118475
81	0x3b167ad6	0.00229614
82	0x3c770eb8	0.015079193
83	0xbb038457	-0.0020067894
84	0x3c2afeb5	0.010436703
85	0x3a3cc3e8	0.0007200823
86	0xbc912b98	-0.017720982
87	0xbace6817	-0.0015747574
88	0x3bd6b4a4	0.0065522958
89	0xbc412876	-0.011789432
90	0xbb64f09c	-0.0034933453
91	0x3bad9fdf	0.005298599
92	0xbb131c55	-0.0022447307
93	0xbb1c39c4	-0.0023838142
94	0x3bd0149d	0.0063501135
95	0x3bdbf803	0.006712915
96	0xbbf3aa13	-0.007436046
97	0x3a39f616	0.00070938596
98	0x3a2c75b9	0.00065788213
99	0x3b1ddd0a	0.0024088048
100	0xbbf1bc3e	-0.0073771765
101	0xbb35ec24	-0.002775916
102	0x3b3e56b4	0.0029043378
103	0x3935c92b	0.00017336446
104	0xbb5c1973	-0.0033584505
105	0x397290f1	0.00023132913
106	0xbb31a6f4	-0.0027107568
107	0xbb1af450	-0.0023644157
108	0x3bab28b1	0.0052233567
109	0x3adaddfb	0.0016698235
110	0xbbd64e45	-0.006540092
111	0x3bc84c48	0.006112609
112	0x3b32a145	0.0027256769
113	0x3bc9bee0	0.0061567873
114	0xbb95eeb0	-0.004575573
115	0xb99e6b10	-0.00030215876
116	0xbc0da819	-0.008646035
117	0xbc16ee08	-0.0092120245
118	0x3c50b0e1	0.012737484
119	0x3c3cf322	0.011532577
120	0xbbb26233	-0.005443835
121	0xbc0e4695	-0.00868382
122	0xbbde8a8f	-0.00679142
123	0xba87d9bc	-0.0010364573
124	0xbaaefa0c	-0.0013349666
125	0xbab67852	-0.0013921356
126	0xbc13bd24	-0.009017263
127	0xbbadee8f	-0.0053079794
128	0xbb8a3377	-0.004217561
129	0xbbc080e0	-0.005874738
130	0x3c053823	0.00813106
131	0x3b4b31cb	0.003100502
132	0xbc48e3ac	-0.012261312
133	0xbac1266a	-0.001473618
134	0xbaa33116	-0.0012450542
