lightning_logs/version_2/checkpoints/epoch=48-step=49.ckpt (torch, 32319 bytes, 25 tensors)

encoder.dense1.weight f4 [45, 28]
000000 78 6d 42 be 26 2e 8b bd 03 3c 81 bc 1d c2 c2 bd
       -0.18987072 -0.067959115 -0.015775686 -0.095096804
000010 e2 7a 32 be f2 3d bf bd 50 a2 fc 3d 55 fd e6 3d
       -0.17429689 -0.09337987 0.12335646 0.11278788
000020 a6 43 26 be 4f a6 35 be 4a 18 69 3d 7c 19 e5 bd
       -0.16236743 -0.17739223 0.05690793 -0.111865014
000030 0b 39 31 be 86 c6 9e bc 38 f0 1c 3e 4a c8 be 3d
       -0.17306916 -0.019381773 0.15326011 0.09315546
000040 cb 6a 80 bd 7a 50 a3 bd 9a 9e 55 3c 6d 7b a6 bd
       -0.06270369 -0.07974334 0.013038302 -0.0812901
000050 ce 34 58 bd 1b 5f 9e bd 68 58 22 be c7 5e 10 3e
       -0.052784733 -0.07732984 -0.15854037 0.14098655
000060 c6 10 7c 3d c1 bd 2e be 56 aa e9 bc 73 1a d8 3d
       0.061539434 -0.17064573 -0.028523605 0.1055192
000070 eb 03 e7 bd 21 cd 34 be 33 dc 87 bd 73 7c ee 3d
       -0.11280044 -0.17656375 -0.066337965 0.116448306
000080 58 6c 45 bb d6 a1 1b 3e 16 9e 24 3e e3 5a 06 be
       -0.0030124392 0.15198454 0.1607593 -0.13120608
000090 aa a3 e7 3d cf 5e 2e be 39 e8 26 3d 6e 77 06 be
       0.11310513 -0.17028354 0.04074881 -0.13131496
0000a0 df e6 39 be 8e 6a 9f bd a7 d6 3c 3d a6 53 e2 3c
       -0.18154477 -0.077839956 0.046103146 0.027627777
0000b0 af 9f 24 3e 53 bc 16 be 88 ca 44 3c db ed c0 3d
       0.1607654 -0.14720277 0.012011178 0.09420367
0000c0 82 bf f3 3d 0b 08 dd bd fd 53 1e 3d 6f 7e c3 3d
       0.119017616 -0.1079255 0.038654316 0.095456
0000d0 30 68 47 3d fe f7 b6 3d f5 7b 6e bd 62 cb e2 bc
       0.048683345 0.089340195 -0.058223683 -0.027684871
0000e0 4c b6 92 bd b8 f1 be bd b2 1c bc 3d 55 4a 1a 3e
       -0.071636766 -0.09323448 0.09185161 0.15067418
0000f0 02 ca a2 bd a6 82 8a 3d c9 d5 12 3e 9f 15 04 3e
       -0.07948686 0.067632005 0.14339365 0.12898873
000100 84 d0 48 3c d2 61 4c 3b e3 99 03 be b0 d9 0a 3c
       0.012256745 0.0031186235 -0.12851672 0.008474752
000110 5c 7a ce 3d 6a ed be 3c 76 d3 21 3e 19 67 03 bd
       0.10081932 0.023306567 0.15803322 -0.032080743
000120 20 7c b1 bd 56 fa 0c 3e 8a 96 85 bd 2a 25 1c 3d
       -0.08666253 0.1376737 -0.06522854 0.03812138
000130 97 26 5c be 8d 37 49 3d 79 1c 01 be 99 2e 8d 3a
       -0.21499096 0.049125243 -0.12608518 0.0010771333
000140 73 8e 4e 3e ba f9 df 3d dd a7 28 3e 1c 13 57 3c
       0.20171528 0.109363034 0.16470285 0.013127115
000150 45 d0 e7 bb e7 97 12 bd 60 ba d9 bd 7d ca 9f bd
       -0.007074388 -0.035789397 -0.10631251 -0.078022934
000160 02 40 97 bd f5 6a 3f be f6 44 28 bd 9c 64 12 3e
       -0.073852554 -0.18693145 -0.04108139 0.14296192
000170 84 14 8d 3d 8f fd d0 bd 98 8d 12 3d ed 9d dd bd
       0.06888679 -0.102046125 0.035779566 -0.108211376
000180 69 56 07 3e 58 91 b5 3d 30 54 1e be 2d e6 2c 3e
       0.13216557 0.08865613 -0.15461802 0.1688468
000190 72 d5 75 bc 17 e9 00 bd 4a 74 0c 3e 32 df c1 3d
       -0.015004503 -0.03147229 0.13716236 0.09466399
0001a0 e8 d4 26 3c a5 ba 4a bd ad a2 e0 3d 6a 7a c3 3d
       0.010182597 -0.049494404 0.10968528 0.09544833
0001b0 e4 b5 9b bd fc 93 e1 3d 41 b9 d6 bc 5b 82 16 3e
       -0.07603052 0.11014554 -0.026211383 0.14698164
0001c0 10 2b ae 3d 6b 85 99 bd 0c ce 16 3d 0c c0 33 3e
       0.08504307 -0.074961506 0.036817595 0.17553729
0001d0 b8 00 c1 bc 83 da 3e 3d d7 40 f4 3c 07 1d 0d be
       -0.023559913 0.046595108 0.029816074 -0.13780604
0001e0 e8 57 1f be 45 ec 92 3d 84 af 41 3b ed 5f 89 bd
       -0.15560877 0.07173971 0.0029554078 -0.067077495
0001f0 bd 7d 40 be b0 4e 59 be 07 34 53 be b7 fb 9d 3c
       -0.18797965 -0.21221423 -0.20625316 0.019285066
000200 2c 92 32 bd 2a 18 45 bc f3 bd ff 3d 5f 87 b2 3c
       -0.04359643 -0.012029687 0.12487402 0.021793066
000210 93 ce d8 3d 32 ab 06 be 53 c8 4a 3e 06 c7 3d 3e
       0.10586276 -0.13151243 0.1980298 0.18532953
000220 b2 e0 95 bc 7b 25 0a bd 83 24 19 bd 65 a6 0b be
       -0.01829562 -0.03372715 -0.037388336 -0.13637693
000230 40 1c ca bd cf 67 00 3e ce e5 15 be 5e 44 ab 3d
       -0.098686695 0.125396 -0.14638445 0.083626494
000240 a6 30 0f be 07 18 13 3e 17 04 5f be be d3 84 bd
       -0.13983402 0.14364634 -0.21778904 -0.06485699
000250 78 2a 35 3d dd 19 30 be 36 f4 20 3e 38 49 18 be
       0.044229954 -0.17197366 0.15718159 -0.1487168
000260 f2 ad a6 bc 83 31 09 be 02 dd 27 bd 86 9b f8 3d
       -0.020346615 -0.13397793 -0.040982254 0.12139039
000270 1a ca 05 3d e2 2b 39 3d 49 30 e4 3d 84 13 b2 bd
       0.032663442 0.045207866 0.11142022 -0.086951286
000280 e0 ed 7c 3b 94 ae e0 3d 3a 6e f2 3b 45 6c c8 3d
       0.0038593933 0.10970798 0.007398394 0.09786276
000290 30 1d a7 3b 29 84 4c bd 37 b0 76 bc b9 02 92 39
       0.005099915 -0.049930725 -0.015056661 0.0002784932
0002a0 9d 22 f3 3d a4 16 98 bd 0d 4c db 3d 39 e4 87 3d
       0.11871836 -0.07426193 0.10707865 0.06635327
0002b0 21 09 6e 3d e5 c5 fb 3d 7a c9 91 3d 0c cf f6 bd
       0.058114175 0.12293605 0.07118507 -0.1205121
0002c0 ed d5 1c 3e 99 74 bf bc 2f f7 04 be bd 6c 44 3e
       0.15315981 -0.023371028 -0.12984918 0.19182105
0002d0 7e 97 81 3d 9d 13 00 3e 24 88 4b 3d 33 22 90 ba
       0.06327723 0.12507482 0.04969038 -0.001099652
0002e0 48 8b 53 bd b2 dd 1b 3e a4 50 05 3e 8e 15 cf 3d
       -0.0516465 0.15221289 0.13019043 0.10111533
0002f0 79 cb dd 3c 4c ac fb 3d c4 af 1b be 21 d6 ae 3d
       0.027074562 0.122887224 -0.15203768 0.085369356
000300 be 0e 24 3d 49 92 58 3d b4 0f 1e be 00 45 cd 3d
       0.04005312 0.052873883 -0.15435678 0.10022926
000310 33 39 92 3d 91 3e b9 3c c7 ef 92 3d 8b 24 a1 3d
       0.07139816 0.022612842 0.0717464 0.07868298
000320 dc 77 0b 3e b8 fa c7 bd de 30 e7 3d f8 2a ee bd
       0.13619941 -0.09764618 0.112886176 -0.116292894
000330 ba e7 81 3d d3 fe 8c bd d2 52 33 3d 16 75 2e 3e
       0.063430265 -0.06884541 0.043780155 0.17036852
000340 73 72 f7 3d 34 68 51 bd 1d 82 99 3c b5 d2 1b be
       0.12082376 -0.051124766 0.0187388 -0.15217097
000350 14 15 fb 3d 88 b4 80 bd 3e e1 d8 3c 7a de d3 bd
       0.1225988 -0.062844336 0.026474591 -0.103451684
000360 68 5d f6 3c c1 9b 3a bd 4e 66 52 be cf 63 95 3d
       0.030073836 -0.045558695 -0.20546839 0.072944276
000370 67 61 d6 3d c8 fd e0 3d 0f a0 30 be 9b d0 0a 3e
       0.10467797 0.10985905 -0.17248558 0.13556139
000380 f1 71 03 3e 63 86 30 be 88 a0 e5 3d ba 65 33 bd
       0.12836434 -0.17238764 0.112122595 -0.043798186
000390 77 da 31 be df 60 0d be 26 10 18 3d cc 2b d6 3c
       -0.17368494 -0.13806485 0.037124775 0.02614393
0003a0 83 b4 c4 3c 97 f8 1b be be 9b a1 3c 46 bd cd bd
       0.024011856 -0.15231548 0.019727584 -0.10045867
0003b0 b3 92 bb bd 75 5e 02 3e 04 2a 74 bd 10 6f 2d 3e
       -0.0915884 0.12731345 -0.05961038 0.16936898
0003c0 0d 58 cc 3b d4 5b 83 3d 22 e1 87 bd d0 28 5c 3d
       0.0062360824 0.06413999 -0.066347376 0.05374986
0003d0 14 89 29 3e d9 73 ec bd 27 3b b1 bd b3 e0 27 bd
       0.16556197 -0.11545534 -0.086538605 -0.040985774
0003e0 ae 64 10 bd 7b fb 25 3d 89 99 c4 bd 8a ce 29 3e
       -0.035252266 0.040523034 -0.09599597 0.16582695
0003f0 e4 7b 99 bc a1 9e 23 3e 56 ed 82 3d 48 27 16 be
       -0.018735833 0.15978481 0.063929245 -0.14663422

encoder.dense1.bias f4 [45]
000000 4f dc 3f be 34 2d 05 3e e9 0e 2d be 80 cb a8 3c
       -0.18736385 0.13005525 -0.16900219 0.020604849
000010 ce 98 40 3d ca 8f 49 3e 2e 17 c5 3d 0e 6e 8c bd
       0.047020726 0.19683757 0.09623562 -0.06856929
000020 13 5c b8 bd 1a c7 32 3c 4b 80 0a be 5f 6c f2 bd
       -0.09001937 0.010911727 -0.13525502 -0.118370764
000030 d5 61 7b 3d 5c 42 de bd 4d 2f 0f be 21 39 0f 3e
       0.061372597 -0.10852501 -0.13982888 0.13986637
000040 44 34 2a be 23 4c 79 3d 15 e3 a6 bb 8a e8 b2 bd
       -0.166215 0.060863625 -0.0050929883 -0.087357596
000050 db 39 4f be 0a 69 af 3d a2 b8 00 3e a7 43 a8 bd
       -0.20236914 0.085649565 0.12570432 -0.08216029
000060 ea ef b0 39 f2 37 2b 3d f3 10 90 3d 1c 32 e0 bd
       0.00033748086 0.0418014 0.07034483 -0.109470576
000070 73 51 a1 bd 7d f8 ec 3d 34 ec 9f bb fb b4 21 be
       -0.07876863 0.11570833 -0.0048804525 -0.15791695
000080 23 30 e7 3d 35 5b e3 bd e2 cc c6 3c 2d 7f 11 be
       0.11288478 -0.11101381 0.024267618 -0.1420867
000090 c3 be 09 3e c2 25 a9 39 9d c3 2e bd 83 17 56 3d
       0.13451676 0.00032262324 -0.04266702 0.052268516
0000a0 7d d3 45 be 0f 1f 40 bd da d5 4c bd 3e 3d d8 3d
       -0.19318958 -0.04690462 -0.050008632 0.10558556
0000b0 a4 1e 23 3e
       0.15929657

encoder.dense3m.weight f4 [3, 45]
000000 bb f9 3a 3d 0e da e5 3c e6 a2 f7 bd f4 cd e3 3c
       0.045648318 0.028058078 -0.12091617 0.027808167
000010 9d a7 10 be 86 90 e3 bd 2a ad d9 bd ed a1 dd 3b
       -0.1412644 -0.1111155 -0.106287315 0.006763688
000020 4e 8e 86 3c bc 19 2b be fa ec 05 3e 91 ee 8e bd
       0.016425278 -0.16709036 0.1307868 -0.06979097
000030 96 a4 88 3d 77 3f 50 3d b2 f6 c4 bd a8 66 f4 3c
       0.06672017 0.050841775 -0.09617366 0.029834107
000040 3f cd 9f bc 5a 2f 04 be 01 c1 f9 bd 40 27 21 3d
       -0.019507049 -0.12908688 -0.12195016 0.039344072
000050 64 e4 af 3c 1b 2f f9 bd 2d 4b e4 3d 3f c0 ae bd
       0.02147121 -0.12167188 0.11147151 -0.08532762
000060 0d d0 15 3d dd f1 79 bc 89 fc ae 3d e9 f9 d3 bd
       0.036575366 -0.015255419 0.08544261 -0.10350401
000070 d9 7a a9 bd 42 e1 3e be a2 9c e3 3d ff f7 3f 3e
       -0.082753845 -0.18640617 0.1111386 0.18746947
000080 f6 d3 b9 3d 7b 0d 51 3d d3 61 e4 bd 6d d3 33 3e
       0.090736315 0.051038247 -0.11151471 0.17561121
000090 89 f7 28 3c 4b f8 bf bd 1f be 64 3c 73 3d 0c be
       0.010312923 -0.0937353 0.013961344 -0.13695316
0000a0 9d c6 18 bd 86 07 86 3c 55 a4 d6 3d 92 45 91 bd
       -0.037298787 0.01636101 0.104805626 -0.070933476
0000b0 50 eb ae 3d 8c 4d fc bc b0 fb 00 bd f5 5c 42 bd
       0.08540976 -0.030798696 -0.031490028 -0.047451932
0000c0 af a8 c5 3b a8 19 6b 3d 6a c8 a2 bc ed 80 d1 3d
       0.0060320715 0.057397515 -0.019870955 0.10229669
0000d0 12 99 03 be e3 b0 04 bd be ee 2d bd fa cf e5 bd
       -0.1285136 -0.032395255 -0.04246401 -0.11221309
0000e0 95 eb 96 bd 8f 9e 2c bd a7 00 e8 bd 11 69 0a 3e
       -0.073691525 -0.0421434 -0.113282494 0.13516642
0000f0 b1 d8 e5 3d bd 19 09 3d 7b d7 47 3d f2 2d ea 3c
       0.11222971 0.03347181 0.048789483 0.028586362
000100 48 54 54 bd 53 c0 27 bd 80 3b 84 bd e2 9d 80 3d
       -0.05183819 -0.0409549 -0.06456661 0.06280114
000110 6a 7f 1e bd 79 96 6e bd 2f 8a cf 3d 03 7a 42 3d
       -0.03869573 -0.05824897 0.10133778 0.04747964
000120 aa 53 0e be 00 3e 4f bd 40 7a 36 be 9a 0e ed bd
       -0.13899103 -0.050596237 -0.17820072 -0.11575051
000130 19 da 7f 3c ae 74 95 3d 36 1f bc 3d 4b 3d 29 3e
       0.015615963 0.072976455 0.091856405 0.16527288
000140 26 8e 8d bd 02 ef 3c bd cb 3c 91 bd fb 75 94 3c
       -0.06911878 -0.046126373 -0.070916735 0.018122664
000150 f0 96 ea bd af 0c 71 3d f0 c2 23 3e b0 5f ce bd
       -0.1145457 0.058849987 0.15992332 -0.10076845
000160 e6 d5 35 3d f5 d2 f8 bd 74 b8 a3 3c 6f cf b1 bd
       0.044393443 -0.12149612 0.019985415 -0.08682143
000170 87 5b c0 3d b3 20 06 be 4d 2d 4e bc 7d c6 a5 3c
       0.093924575 -0.13098411 -0.012584043 0.020236248
000180 5c 10 41 bd 6d 9a e7 3c 96 9e 99 bd 15 ae f1 bd
       -0.047134742 0.028271878 -0.07500951 -0.11800782
000190 5f 13 37 3d 30 e3 12 be 13 ae 11 bc a1 47 11 bc
       0.044696208 -0.14344478 -0.0088916 -0.008867175
0001a0 56 4b 11 3d d2 27 ce 3c 14 a6 28 3e 6e ef 14 3d
       0.035472237 0.025165472 0.16469604 0.03636115
0001b0 1e 6c d5 bc 7d 93 42 bd 8b bb 37 bd d0 d9 f4 3d
       -0.02605253 -0.047503937 -0.04485659 0.11955607
0001c0 cf 66 10 3d 52 c8 9e 3b 0f fd 08 be 44 d6 b1 3c
       0.035254296 0.0048456574 -0.13377784 0.021708615
0001d0 fa 38 1f be 64 f8 f5 3d 0f 35 c5 bd b7 5c a5 3c
       -0.15549079 0.120102674 -0.09629261 0.020185811
0001e0 b7 84 8f 3d bf 1c 73 bd 34 1d a5 3b 6c 85 13 be
       0.07007735 -0.059353586 0.0050388817 -0.14406365
0001f0 4a 1b b4 bd bb ae e2 bc 6c 1c 46 3c b8 9e 30 be
       -0.087942675 -0.027671209 0.012091737 -0.17248046
000200 cc 0a 18 3e 3d 6f dc bc 2c 93 8f 3c 44 5f b4 3d
       0.14847869 -0.026908511 0.017526232 0.08807233
000210 66 e7 01 bd ce 67 16 3b 7f 7e 80 bd
       -0.03171482 0.0022950056 -0.06274127

encoder.dense3m.bias f4 [3]
000000 44 31 dc bb fe a3 db bd be ee e9 3d
       -0.00671974 -0.107246384 0.114224896

encoder.dense3s.weight f4 [3, 45]
000000 7e 94 cb bd 4d ea d4 3d a5 be a5 bd 13 2b bf 3c
       -0.09940432 0.10396252 -0.08093003 0.02333597
000010 6c 5b b1 bd 68 35 f8 bd cf e8 ef bc b3 e3 e1 bd
       -0.086600155 -0.121195614 -0.029285816 -0.11029758
000020 27 79 27 3c 84 ab ab bb e3 c8 43 3d b5 97 f9 bc
       0.010221756 -0.005238952 0.047799002 -0.030467847
000030 84 6f 16 3d a4 0c 84 bc e4 70 81 3d 0c bd b2 bd
       0.036727443 -0.016119309 0.0632036 -0.08727464
000040 d4 6b 3c bd 4b 0a f4 3b 49 c5 d1 3d 0f ed 0c 3d
       -0.04600127 0.007447516 0.10242707 0.034405764
000050 de 90 d9 3d 12 1d 89 bc 23 2c 3e bd 8b 67 f0 bd
       0.10623334 -0.016737495 -0.04642881 -0.11738499
000060 b4 ec f7 bd 80 b4 a4 bd 3b 87 96 bd fa 18 e5 3d
       -0.121056944 -0.0804224 -0.07350012 0.111864045
000070 34 eb e7 3d e8 e7 16 be 81 10 da 3d 31 df f1 bd
       0.11324158 -0.14736903 0.10647679 -0.118101485
000080 9e 0d 08 bd 20 8e 84 3d 2e 02 74 bd b8 b7 4d 3d
       -0.03321611 0.06472421 -0.05957239 0.050224036
000090 87 ce e8 bd 6a ea c5 3d 68 9c 4b 3d 21 6a c1 bd
       -0.11367517 0.096638516 0.049709707 -0.094440706
0000a0 47 fa a3 bc 9d ce ac 3d d0 eb 1f bd 94 77 8b 3d
       -0.020016802 0.08437846 -0.039043248 0.06809917
0000b0 00 3f c3 bd 7b 69 ab bd 11 d4 08 be f0 10 b6 3d
       -0.09533501 -0.08369728 -0.13362147 0.08889949
0000c0 d2 a3 a2 bd d5 97 ac 3d 4d d8 cf 3c 2c b5 f1 bd
       -0.079414025 0.08427397 0.025371695 -0.11802134
0000d0 d8 96 cd 3d 98 53 1b 3c 21 c9 e4 3d 4b 00 c5 bd
       0.10038537 0.0094803795 0.11171175 -0.096191965
0000e0 e3 05 a4 3d 67 0d f7 bd 03 36 be bd 39 b7 04 3d
       0.08008935 -0.12063103 -0.09287646 0.032401297
0000f0 5a f6 03 3d 28 bc a2 3d c6 1f da 3d d1 67 c9 bd
       0.03221736 0.07946044 0.106505916 -0.098342545
000100 75 2c 18 3d 2a 62 f9 bd a1 0c 5b 3d 37 b9 cf 3d
       0.037151773 -0.121769264 0.05347884 0.10142749
000110 9b cc 19 bb 68 b1 02 3e 3c 21 9a bd 55 81 13 3c
       -0.0023467902 0.12762988 -0.0752587 0.009003003
000120 c1 c2 cd bd b7 2a bd bd f6 28 be 3d bc 64 77 bd
       -0.10046912 -0.09236663 0.092851564 -0.060398802
000130 d6 07 7b 3c db eb 73 bd 82 54 3f bd 90 67 17 be
       0.015321692 -0.0595511 -0.046711452 -0.147856
000140 25 27 05 3e 74 47 c7 bd 1c 18 cd bd 71 da 83 bd
       0.13003214 -0.097304255 -0.10014364 -0.06438149
000150 75 e3 17 bd ae 2e 14 3e bb 88 bc 3d 8b 45 21 3d
       -0.037082154 0.14470932 0.09205767 0.039372962
000160 3b 3a 35 3d 14 01 13 be 5f f9 1b 3e 4c a2 c8 3d
       0.044244986 -0.1435588 0.15231846 0.09796581
000170 25 56 bf 3d d9 6f 94 3d 71 8f 84 3d ba b5 0d bd
       0.09342603 0.07247896 0.06472672 -0.034597136
000180 34 e7 13 be 0b c8 ba 3c 24 cf 03 be 2f fb f6 bd
       -0.14443666 0.022800466 -0.12871987 -0.12059628
000190 86 43 e5 3c 54 47 c2 bb 1e c5 ca bd bc 87 80 3b
       0.0279863 -0.005928913 -0.09900878 0.003922431
0001a0 b8 67 f3 bd bd f8 a0 3c 46 7c b2 3d e1 b3 b4 3d
       -0.11885017 0.019649858 0.087151095 0.08823372
0001b0 1e 58 7c 3d e9 7a 6b bd 5d 88 47 3b 16 c8 d0 bd
       0.061607473 -0.057490263 0.003044627 -0.10194413
0001c0 0e 25 0b bc 83 c6 0d bd 8d 2a cc 3d 4f 11 bc bb
       -0.008492721 -0.034613144 0.099690534 -0.005739368
0001d0 9c 3a f1 bc 42 25 83 bc 59 0b d9 bd 73 02 e4 bc
       -0.029446892 -0.016008977 -0.105978675 -0.0278332
0001e0 f7 a6 10 be 8e 73 65 3c 1b 38 ce 3c 72 75 58 3c
       -0.14126192 0.014004601 0.025173238 0.013211595
0001f0 0c 90 c5 3d cd 53 cd 3d e9 3a e8 bc 7c 48 b5 3d
       0.096466154 0.10025749 -0.028348403 0.08851716
000200 52 0e 7d bc aa 8c 09 be ec fe f9 3d 2e 7a f9 3d
       -0.015445309 -0.13432565 0.122068256 0.12181507
000210 8c 73 66 3c f3 00 06 be b8 55 82 bd
       0.014065634 -0.130863 -0.06364006

encoder.dense3s.bias f4 [3]
000000 e6 3d 73 3d 9d 0e 4c bc 6c 58 da 3d
       0.059385203 -0.012454656 0.106613964

decoder.linear.bias f4 [28]
000000 6e 08 2d 3e e9 81 ef be 07 f3 ed 3e 59 63 f9 3e
       0.16897747 -0.467788 0.46474478 0.4870861
000010 83 80 a6 3e 0e 5c cf bc 86 da 8a be 1c ec cf bd
       0.32519922 -0.02531245 -0.27119845 -0.10152456
000020 aa 09 96 3d 1c 92 97 be f1 25 55 be 2f 97 90 be
       0.07326062 -0.2960366 -0.20815255 -0.28240344
000030 6b 2d e7 be 6c cd 3e 3e 29 89 09 be 7f f4 e2 3e
       -0.4515184 0.1863305 -0.13431229 0.4432716
000040 3f 3b 1d 3e a7 03 8a be c6 48 7a be f3 a5 d6 be
       0.15354632 -0.26955912 -0.24441823 -0.41923484
000050 6e 6a 09 be 51 ca 80 3e a0 29 d9 bd 8a 95 5f 3d
       -0.13419506 0.25154355 -0.106036425 0.05458597
000060 2d aa 13 be eb 60 c0 3e 91 9b ec 3e d4 25 b8 be
       -0.14420386 0.37573943 0.46212438 -0.3596636

decoder.linear.weight_orig f4 [28, 3]
000000 06 da fc be aa 47 d5 be 22 c9 c6 3e 94 e6 bd be
       -0.4938509 -0.41656238 0.38825327 -0.3708998
000010 2e 35 eb bd e4 77 7a 3e de 46 0d 3e 38 e6 09 3f
       -0.114847526 0.24459797 0.13796565 0.5386691
000020 b6 52 9e bd 5e 2c d0 3e b6 c7 c4 3e 5b da f6 3e
       -0.077306196 0.4065885 0.38433617 0.48213467
000030 b4 ad 5c 3e ac a5 8c be 55 54 86 bd f8 e7 65 be
       0.21550637 -0.27470148 -0.06559054 -0.2245177
000040 34 23 82 be f3 c7 ff 3e e9 71 aa 3e 0a cc 06 bf
       -0.25417483 0.49957237 0.33290032 -0.5265509
000050 89 4e a5 bd 62 e9 6c be 7b 97 3e 3e 22 57 a2 3e
       -0.0807162 -0.23135903 0.18612473 0.31707102
000060 ec cb e2 3e 82 a9 12 3f 6f 4a 2e 3e 24 df 51 3d
       0.44296205 0.572899 0.17020582 0.051238194
000070 24 f6 b4 3e 80 f9 f3 3e 04 6a f9 3e 18 f9 f0 3d
       0.3534404 0.4765129 0.48713696 0.11766261
000080 0c 18 17 3e 6a a1 1d be 10 65 ff 3d f2 06 3b bd
       0.14755267 -0.15393606 0.12470448 -0.04566092
000090 73 34 3a 3e ca 8d 81 3e a1 8b b2 be 17 34 06 3f
       0.1818407 0.2530349 -0.34872153 0.5242323
0000a0 d8 98 0e bf 7e c6 24 be d8 e7 98 3d 30 bb e8 bd
       -0.5570197 -0.16091344 0.07466096 -0.11363828
0000b0 9d 9e d6 3e ae 69 cf 3e 08 f8 c4 3e a2 e1 d0 be
       0.41917887 0.40510315 0.38470483 -0.40797144
0000c0 f4 75 0d 3f f2 5d bc 3e 19 d8 27 be e8 b2 66 be
       0.5525811 0.36790425 -0.16391028 -0.22529185
0000d0 2b a1 88 be f5 3f 6c be b4 85 23 be ea 0d 8e 3e
       -0.2668546 -0.23071273 -0.15968972 0.2774499
0000e0 76 2e 26 3e b6 34 3e be 12 a3 8d 3e 4f e5 a8 3e
       0.16228661 -0.18574795 0.27663475 0.3298745
0000f0 5e f8 39 3e 32 01 87 3e 5c ed e9 be 0c a6 cc 3e
       0.18161151 0.263681 -0.45688903 0.39970434
000100 18 b7 bf 3e 30 d8 ee 3e f0 04 1f 3e c4 56 dd 3e
       0.37444377 0.46649313 0.15529227 0.4323026
000110 9f 7d 82 be 86 bb 05 bf 80 cd f8 3e c0 b3 a1 3e
       -0.25486466 -0.52239263 0.48594284 0.3158245
000120 c4 7e c3 be ed e1 0d bf 94 95 01 3f 79 32 c9 be
       -0.38182652 -0.5542286 0.50618863 -0.3929632
000130 64 4d 1f be f4 d5 f5 be ae 9e 6f be b0 e7 36 bd
       -0.15556866 -0.48014796 -0.23400375 -0.04465455
000140 47 7b a9 be 8e ba c9 be c4 4f 68 be 50 17 c6 3d
       -0.33101866 -0.39400142 -0.22686678 0.09672415

decoder.linear.weight_mask f4 [28, 3]
000000 00 00 80 3f 00 00 00 00 00 00 00 00 00 00 00 00
       1.0 0.0 0.0 0.0
000010 00 00 80 3f 00 00 00 00 00 00 80 3f 00 00 00 00
       1.0 0.0 1.0 0.0
000020 00 00 80 3f 00 00 00 00 00 00 00 00 00 00 80 3f
       1.0 0.0 0.0 1.0
000030 00 00 00 00 00 00 00 00 00 00 80 3f 00 00 00 00
       0.0 0.0 1.0 0.0
000040 00 00 00 00 00 00 80 3f 00 00 80 3f 00 00 00 00
       0.0 1.0 1.0 0.0
000050 00 00 80 3f 00 00 00 00 00 00 80 3f 00 00 00 00
       1.0 0.0 1.0 0.0
000060 00 00 00 00 00 00 00 00 00 00 80 3f 00 00 80 3f
       0.0 0.0 1.0 1.0
000070 00 00 00 00 00 00 00 00 00 00 80 3f 00 00 00 00
       0.0 0.0 1.0 0.0
000080 00 00 80 3f 00 00 80 3f 00 00 00 00 00 00 80 3f
       1.0 1.0 0.0 1.0
000090 00 00 80 3f 00 00 00 00 00 00 00 00 00 00 80 3f
       1.0 0.0 0.0 1.0
0000a0 00 00 00 00 00 00 00 00 00 00 00 00 00 00 00 00
       0.0 0.0 0.0 0.0
0000b0 00 00 80 3f 00 00 80 3f 00 00 00 00 00 00 80 3f
       1.0 1.0 0.0 1.0
0000c0 00 00 00 00 00 00 80 3f 00 00 80 3f 00 00 00 00
       0.0 1.0 1.0 0.0
0000d0 00 00 00 00 00 00 80 3f 00 00 00 00 00 00 00 00
       0.0 1.0 0.0 0.0
0000e0 00 00 80 3f 00 00 80 3f 00 00 00 00 00 00 80 3f
       1.0 1.0 0.0 1.0
0000f0 00 00 80 3f 00 00 00 00 00 00 80 3f 00 00 00 00
       1.0 0.0 1.0 0.0
000100 00 00 00 00 00 00 80 3f 00 00 00 00 00 00 80 3f
       0.0 1.0 0.0 1.0
000110 00 00 00 00 00 00 00 00 00 00 80 3f 00 00 00 00
       0.0 0.0 1.0 0.0
000120 00 00 80 3f 00 00 00 00 00 00 00 00 00 00 00 00
       1.0 0.0 0.0 0.0
000130 00 00 00 00 00 00 80 3f 00 00 80 3f 00 00 00 00
       0.0 1.0 1.0 0.0
000140 00 00 00 00 00 00 00 00 00 00 00 00 00 00 80 3f
       0.0 0.0 0.0 1.0

exp_avg f4 [45, 28]
000000 b2 d2 40 3b 76 9c 31 3a 58 fb 12 ba 07 a2 d6 3a
       0.002942246 0.00067753287 -0.0005606911 0.0016375192
000010 25 8a c2 3a 1b dd 50 ba 74 9e bd 3a 36 47 cd 3b
       0.0014842196 -0.00079675176 0.0014466778 0.0062645925
000020 2a 25 2d 39 3a 21 c2 39 73 02 1c 3b 97 89 91 3a
       0.0001651241 0.0003702732 0.002380517 0.0011103627
000030 8e f6 ee 39 16 ff 73 ba ed 95 eb 3a 0a e6 c4 3a
       0.00045578595 -0.0009307725 0.0017973759 0.001502217
000040 16 a7 02 3b 00 51 bb 3a 1c 40 ac 3a fe 04 30 3b
       0.0019936017 0.0014291108 0.0013141665 0.0026858444
000050 37 87 21 3b 8b 75 d8 b8 24 3e 81 3b 39 d6 ae 3b
       0.0024647245 -0.00010321577 0.0039441753 0.005335596
000060 5e d0 bd 3b 34 a6 f6 39 d9 0d 96 3b 9c 36 97 39
       0.0057926616 0.00047044607 0.0045792875 0.00028841652
000070 f8 02 9a 3b 6b c4 46 3a 7f 08 72 b9 92 96 13 3c
       0.004700061 0.0007582369 -0.00023082083 0.009008067
000080 68 66 e8 ba 86 d9 17 3b 71 da 32 3a 55 f0 10 3c
       -0.0017730715 0.0023170426 0.00068227114 0.008846362
000090 cd a6 a0 3b a8 3b 2f ba 5c ea cd 3b af a3 36 ba
       0.0049026967 -0.00066846097 0.0062840413 -0.000696714
0000a0 b8 e3 03 b9 c9 dc 09 bb b1 d5 c5 3b e6 e3 09 bb
       -0.00012577965 -0.002103614 0.006037437 -0.002104038
0000b0 dd f0 80 3b c9 86 35 bb 98 40 c9 3b 5e 47 c7 3b
       0.003934963 -0.0027698746 0.0061417334 0.0060815057
0000c0 67 b3 5c 38 bc 7b 56 3b 6b 32 fb 3b 93 71 87 3b
       5.261917e-05 0.003272756 0.0076659224 0.004133412
0000d0 20 b8 b9 3b 8f 1a 9f bb 66 65 77 3b 8f d6 b0 b9
       0.0056677014 -0.004855461 0.0037749647 -0.00033729195
0000e0 63 ac b6 bb 21 d4 ad ba bd 7b 73 3b 71 53 9a bb
       -0.0055747493 -0.0013262072 0.0037152611 -0.004709654
0000f0 4c 4f c2 ba a8 33 ea 3a c4 e2 0d 3c e7 b3 3b ba
       -0.0014824658 0.0017868178 0.008660022 -0.00071602914
000100 d3 b7 99 bb 2e cd 1e 3b 5c 5c 24 3c 21 ef 41 ba
       -0.004691103 0.0024231183 0.010031786 -0.00073979987
000110 be 5c 94 3b 04 01 fe 3b be 74 63 bb 0d ea 59 3c
       0.0045276573 0.007751586 -0.0034707035 0.013300431
000120 86 8c ab 3b 68 b7 80 b9 e4 ec 9b bb 2a 0a 89 bb
       0.0052352576 -0.0002455071 -0.004758464 -0.00418212
000130 f9 55 2b 3c 98 52 5e bb fa 39 29 3b 20 ac 03 3c
       0.010457509 -0.0033923741 0.002582191 0.008036643
000140 d5 75 cd bb c7 29 10 3c d1 79 2d 39 e4 61 88 3a
       -0.00627015 0.008799023 0.00016543946 0.001040515
000150 b8 93 bb 3a 59 94 b2 b9 c8 09 dc ba 1e 0d f2 3b
       0.0014310991 -0.00034061333 -0.0016787583 0.0073868176
000160 fe b3 56 bb 9a d8 a1 3b da ed 04 ba c5 59 82 3b
       -0.0032761092 0.004939151 -0.0005070843 0.0039779865
000170 af 34 69 3b ea e3 98 ba 52 ce 41 3b 2b 27 fd ba
       0.003558438 -0.0011664603 0.002957244 -0.0019314041
000180 0a 76 20 bb 46 2f 8a bb f6 55 fa 3b d7 36 c2 bb
       -0.002448442 -0.004217061 0.007639642 -0.0059269476
000190 e6 9f 6f 37 c1 68 87 bb ab fe b6 3b 0e ca f8 3b
       1.4282739e-05 -0.0041323607 0.005584558 0.007592446
0001a0 0f aa 69 bb 08 d8 e4 3b a0 73 a1 3a 11 98 c5 3a
       -0.0035654341 0.0069837607 0.0012317784 0.0015075227
0001b0 f0 e2 3c 3b d0 47 de bb 8c 6f 7f 3a 71 53 c6 39
       0.0028821789 -0.006783463 0.00097441 0.00037827672
0001c0 ee 0f 2e bc 73 2c 7c bb 20 ae 5f 3b 44 4d 1f bb
       -0.010623915 -0.0038478642 0.0034130886 -0.0024307529
0001d0 12 7b 91 bb a8 4d e1 3b 0c e0 ea 3b 07 71 0d bc
       -0.00443972 0.0068757124 0.0071678218 -0.008632905
0001e0 de d3 49 bb f5 90 dd 3a ad 0a 02 3c 76 49 2d bb
       -0.0030796449 0.0016904162 0.007937116 -0.0026441491
0001f0 f7 27 e4 39 f9 12 b6 3b 60 2f d3 3a d1 a4 df 3b
       0.00043517325 0.005556461 0.0016112141 0.0068250676
000200 44 2f 48 bb 55 d5 21 bb ea 97 aa ba df 96 65 ba
       -0.003054575 -0.0024693806 -0.0013015245 -0.0008758138
000210 9c d9 89 3b 73 52 32 3b f5 fb 13 bc 96 3a 2d bb
       0.0042068493 0.0027209788 -0.009032239 -0.0026432625
000220 d0 a9 22 bc 57 fc 5a 3b 60 d5 7a bb d4 c1 9f 3a
       -0.009928182 0.0033414566 -0.0038274154 0.0012188503
000230 45 57 2a bc 5a fd 2f bb 93 9c 75 3b 7e 78 9f bb
       -0.010396783 -0.002685389 0.0037477359 -0.0048666587
000240 ff 22 bf ba f9 ae a2 3b 54 69 04 3c 65 85 aa bb
       -0.0014582573 0.004964706 0.008081753 -0.00520389
000250 b4 cb fa 39 bd d1 12 3b d7 e0 e6 3b e4 c0 c8 ba
       0.00047835486 0.0022402846 0.007045846 -0.0015316275
000260 b9 59 85 3b 95 1c 11 3c 14 06 15 3b 78 b4 31 3c
       0.0040695337 0.008856912 0.0022739219 0.01084625
000270 ba b9 99 3a 3a c7 70 3a 92 8f f6 3a 4e c0 77 b7
       0.0011728324 0.00091849605 0.0018811098 -1.4767122e-05
000280 4f ab d9 3b 8e 04 95 3b 68 6c 00 bc 26 8f 5f 3b
       0.006642736 0.004547662 -0.007838346 0.0034112423
000290 5a c8 03 bc ef 39 67 3b bd 3a b2 bb 00 ba 8e 3a
       -0.008043373 0.0035282334 -0.005439131 0.0010889173
0002a0 87 0a b3 bc eb a6 11 bc 4b 98 f0 3b 61 b4 3e bb
       -0.021855606 -0.008889894 0.0073423735 -0.0029099213
0002b0 d6 ec 21 bb 3a b9 00 3c 30 47 21 3c b2 52 9a bc
       -0.0024707816 0.007856661 0.009843633 -0.01883826
0002c0 4e d3 f7 3b 81 f5 0f 3b 10 71 c5 3b 8f 2e 86 bb
       0.0075630313 0.00219664 0.006025441 -0.0040949057
0002d0 98 44 56 3a e0 b0 22 3c 89 23 14 3c 02 32 1b 3c
       0.00081736734 0.009929866 0.009041675 0.009472372
0002e0 01 b5 5a bc 37 7f 88 3b 21 f9 51 3c 36 28 15 3b
       -0.013348819 0.004165556 0.012815745 0.0022759563
0002f0 09 c8 39 3b 40 db 29 3c e9 20 fd bc b3 fc 9a bc
       0.002834799 0.010367215 -0.030899482 -0.018919325
000300 00 01 3a bc 4a 9f 19 ba 3d 4c 50 bc dc 81 95 39
       -0.0113527775 -0.0005860223 -0.012713489 0.00028516247
000310 2f f4 e6 3b ea 6f b5 3b 5b 81 4d bb 03 82 3e bb
       0.007048152 0.005537023 -0.003135762 -0.0029069192
000320 f4 dd ba 3a a9 62 a1 ba 1b 0e a7 ba b8 af 25 3c
       0.0014256821 -0.0012312728 -0.0012745293 0.010112695
000330 8d 51 50 bb 6a 50 95 39 14 23 f2 b9 c9 23 e7 3a
       -0.003178689 0.00028479408 -0.00046183972 0.0017634566
000340 3f b7 74 3b 84 e9 ce 39 5e 88 57 bb 85 c4 d3 3a
       0.0037340668 0.00039465365 -0.0032887678 0.001615659
000350 c1 69 41 3c 1c d9 a2 ba 98 db c3 bb 6b be a7 b9
       0.011804999 -0.0012424323 -0.0059771053 -0.00031994595
000360 60 b7 12 3b 30 fc 34 ba 04 39 79 3c 28 e2 9b 3c
       0.0022387132 -0.0006904034 0.0152113475 0.019028738
000370 2a 26 d0 3a 55 60 d2 3a 6d 34 4f 3b cb f8 72 3a
       0.0015880514 0.0016050438 0.0031616942 0.00092686404
000380 b3 3e f4 ba c8 81 eb 39 83 ee cf ba 0c d9 9e ba
       -0.0018634408 0.00044919387 -0.0015863929 -0.0012119128
000390 34 d6 bc ba fd 4d ce 3a 5e 7f 44 bb ac 21 2e bb
       -0.0014407099 0.0015739795 -0.0029983143 -0.0026570363
0003a0 d3 1a dc 3a dd d6 8e ba 05 ce 82 bb 6a 13 ec ba
       0.0016792662 -0.0010897774 -0.0039918446 -0.0018011157
0003b0 d0 95 ba b9 a6 f9 2e ba 04 e3 ac 3a 93 7e 88 bb
       -0.00035588304 -0.0006674774 0.0013190215 -0.0041654794
0003c0 a0 78 2f b9 fa 1e 09 bb 97 dc 8a 3a d4 f3 1c 3a
       -0.00016734237 -0.0020923004 0.0010594305 0.0005987261
0003d0 e8 88 99 bb 4f 76 8d 3b 08 aa 2c bb 30 47 46 b9
       -0.00468551 0.004317082 -0.0026346464 -0.00018909271
0003e0 21 98 6b bb c0 36 93 bb ef 7c ac bb 29 f1 ef b8
       -0.003594883 -0.0044926107 -0.0052639167 -0.00011441328
0003f0 a9 4e 30 bc 98 52 a4 3a ca 62 a7 3b be 32 13 3b
       -0.010760942 0.0012536822 0.005108212 0.0022460665

exp_avg_sq f4 [45, 28]
000000 65 46 0b 36 65 00 6e 35 ad 8a 5b 35 73 ee 2a 36
       2.075359e-06 8.8662483e-07 8.178566e-07 2.547077e-06
000010 1a e9 fc 35 1f 94 0c 35 a4 02 d7 35 c8 c4 b7 36
       1.8843305e-06 5.236961e-07 1.6019517e-06 5.4767333e-06
000020 11 c5 cb 35 ba d9 98 34 93 06 36 36 53 e5 15 36
       1.5182032e-06 2.8470623e-07 2.712394e-06 2.2336214e-06
000030 34 ae 29 35 6b 07 87 35 bc 31 1a 36 21 db 18 36
       6.3210905e-07 1.0060443e-06 2.2976737e-06 2.2777315e-06
000040 68 4a b2 35 b9 27 01 36 17 b7 17 36 a1 3b 2f 36
       1.3283689e-06 1.924562e-06 2.2607326e-06 2.611174e-06
000050 40 0e ef 35 31 2b 49 35 00 cb 0a 36 22 82 54 36
       1.7811035e-06 7.4941187e-07 2.0681764e-06 3.166621e-06
000060 92 31 84 36 db ad 1f 35 43 b3 76 36 3b 60 bd 34
       3.9396773e-06 5.948511e-07 3.67612e-06 3.527401e-07
000070 ac ed 77 37 79 d2 02 37 31 6e bd 36 04 64 f4 37
       1.4777685e-05 7.797608e-06 5.645467e-06 2.913364e-05
000080 12 50 61 37 0b 44 a4 36 88 7d f5 36 b9 ed d9 37
       1.3429688e-05 4.895502e-06 7.3161827e-06 2.5979114e-05
000090 17 6b 92 37 50 f9 ee 35 0a a7 8b 37 0f 41 7f 37
       1.7454424e-05 1.7804941e-06 1.6647875e-05 1.5214332e-05
0000a0 9d 82 b7 36 d6 d5 01 37 f5 bf 66 37 36 99 2d 37
       5.4690304e-06 7.738787e-06 1.3753762e-05 1.0347276e-05
0000b0 27 fc 26 37 53 5b 26 37 e0 58 9e 37 9a 1e 65 37
       9.95308e-06 9.915634e-06 1.8876453e-05 1.3656589e-05
0000c0 d5 8b fe 36 2a ef b7 36 ba 72 92 37 f4 e1 09 37
       7.5860685e-06 5.4816674e-06 1.745798e-05 8.218445e-06
0000d0 29 e0 3b 37 37 2d a5 36 eb bc 8a 37 4f 2f b2 35
       1.119826e-05 4.922647e-06 1.6538854e-05 1.3275802e-06
0000e0 e4 bf e9 36 9e a8 32 36 b0 c0 e2 36 02 54 a3 36
       6.96628e-06 2.6622215e-06 6.7577566e-06 4.8675583e-06
0000f0 a1 4c 54 36 ec e0 9f 36 2d 5e 83 37 c4 e1 9d 36
       3.1635066e-06 4.7647536e-06 1.5660271e-05 4.705247e-06
000100 fc 19 5f 36 6c 9e b2 35 20 74 61 37 5c 5d 8f 36
       3.3244714e-06 1.330814e-06 1.34380825e-05 4.2726006e-06
000110 36 c8 43 36 c9 30 c4 36 7d ab 81 36 38 24 b4 37
       2.9173802e-06 5.8469345e-06 3.8644635e-06 2.1474538e-05
000120 b3 6c cb 36 05 62 58 36 00 c1 57 36 0d 0a 5e 36
       6.0625257e-06 3.2243563e-06 3.2149837e-06 3.3086428e-06
000130 6b 87 89 37 7b 28 22 36 98 16 3c 36 b2 70 70 36
       1.6394732e-05 2.4163444e-06 2.8027334e-06 3.5828384e-06
000140 57 65 cf 36 8b cc 4d 37 d8 db 61 36 f7 d2 ef 35
       6.1808782e-06 1.2266576e-05 3.3655579e-06 1.7868286e-06
000150 01 75 3c 37 bb 17 cc 36 04 63 4d 36 cf a9 8d 37
       1.1232915e-05 6.0824364e-06 3.0605015e-06 1.6887583e-05
000160 33 b9 22 37 cf 9d 4c 36 c2 09 6e 36 ad a3 8e 37
       9.6990725e-06 3.0490226e-06 3.5470443e-06 1.7003937e-05
000170 c5 32 20 37 14 78 b6 35 a4 07 ef 36 54 45 30 37
       9.548564e-06 1.3595004e-06 7.1236445e-06 1.0506559e-05
000180 fb 20 78 36 9a 97 b3 36 e1 76 16 37 2c 93 e6 36
       3.6974077e-06 5.3522645e-06 8.968375e-06 6.871667e-06
000190 43 e4 bc 36 a9 fa ed 36 8a 0d 31 37 af 9b 26 37
       5.6294098e-06 7.092331e-06 1.0553174e-05 9.930619e-06
0001a0 a8 c7 99 36 ff f8 9b 36 31 00 32 37 8a 7c b5 36
       4.5829984e-06 4.648347e-06 1.0609671e-05 5.4087186e-06
0001b0 aa 57 0c 37 72 f6 84 36 ac 5c 40 37 b8 ae 63 35
       8.365061e-06 3.9625966e-06 1.1465669e-05 8.481834e-07
0001c0 0a c5 17 37 17 91 48 36 92 e4 56 36 42 06 f2 35
       9.046178e-06 2.9886776e-06 3.202153e-06 1.8032226e-06
0001d0 2a 1c 3d 36 1a f2 9a 36 8f f0 f2 36 29 19 06 37
       2.8179588e-06 4.617742e-06 7.2401667e-06 7.9928805e-06
0001e0 fb f6 9e 35 27 af 00 35 ac e0 c4 36 ab e9 db 35
       1.1843798e-06 4.7938596e-07 5.8674104e-06 1.6384778e-06
0001f0 23 37 09 35 fe 02 15 36 1f 76 c9 35 d3 00 e2 36
       5.111671e-07 2.2204472e-06 1.5010045e-06 6.735421e-06
000200 7b ce 8b 35 a6 aa a3 35 c9 b6 85 35 45 dc 6b 35
       1.0416401e-06 1.2194112e-06 9.96247e-07 8.7864856e-07
000210 11 c1 9b 36 20 4b 95 35 15 8f d7 36 f0 d3 9d 35
       4.641836e-06 1.1123229e-06 6.4241563e-06 1.1759093e-06
000220 c5 f4 ec 36 41 25 91 36 3d 0d 1a 36 42 2a 56 35
       7.061843e-06 4.3256737e-06 2.2955494e-06 7.9782706e-07
000230 cf 96 d1 37 19 db 37 37 25 18 ce 36 3c fd 5c 37
       2.4984967e-05 1.0958663e-05 6.142089e-06 1.3171983e-05
000240 4a 63 5e 37 0b d2 c8 36 3a 26 4c 37 f3 37 a0 37
       1.3255349e-05 5.9849167e-06 1.2168248e-05 1.909954e-05
000250 3b c0 f9 36 51 57 d4 35 13 6c 1c 37 39 66 42 37
       7.443157e-06 1.5820643e-06 9.323488e-06 1.1587102e-05
000260 bc e5 96 36 4a 69 1b 37 02 02 c8 36 5c f5 83 37
       4.497093e-06 9.2632345e-06 5.960698e-06 1.5730671e-05
000270 f7 fa aa 36 dd aa fb 36 77 4d ea 36 29 e9 a2 36
       5.095611e-06 7.500274e-06 6.9827615e-06 4.8551196e-06
000280 6f f1 16 37 f0 a5 c6 36 80 0d 95 37 4b 12 54 36
       8.99691e-06 5.9201775e-06 1.776847e-05 3.160111e-06
000290 f7 c9 61 37 59 fb a7 36 44 fd 89 37 f7 5b b0 35
       1.3458069e-05 5.0062486e-06 1.6449609e-05 1.3139787e-06
0002a0 09 70 48 39 5f ef d2 38 9a cb 66 38 62 7d 13 39
       0.00019115223 0.00010058167 5.5025892e-05 0.00014065721
0002b0 7f 4e 19 39 f6 85 00 38 4a 5b 7a 38 51 75 56 39
       0.00014620459 3.064234e-05 5.9689664e-05 0.00020452334
0002c0 59 37 d1 38 44 a5 c2 37 c6 7c 8f 38 bc 02 2e 39
       9.976206e-05 2.320356e-05 6.842012e-05 0.00016594952
0002d0 de 23 62 38 6c e0 a2 38 d3 c2 85 38 38 9c be 38
       5.3916003e-05 7.766564e-05 6.378223e-05 9.089004e-05
0002e0 be 5f c6 38 53 2c dc 38 9f 39 c1 38 95 c6 9e 38
       9.459209e-05 0.000104986735 9.21369e-05 7.571016e-05
0002f0 b3 c9 81 38 72 65 1c 38 2b ae 56 39 43 a0 b8 38
       6.188769e-05 3.7287777e-05 0.00020473513 8.803655e-05
000300 ec f5 b4 38 c4 e2 2c 38 37 d0 2b 39 b4 37 50 37
       8.6288754e-05 4.1219188e-05 0.00016385397 1.24107355e-05
000310 88 e8 8f 37 e6 2f 4e 37 4e 8e ef 36 e7 07 62 37
       1.715521e-05 1.2289709e-05 7.1393215e-06 1.347249e-05
000320 6c e5 71 37 e6 cb 9c 36 a8 1e 04 37 92 63 c6 37
       1.4418136e-05 4.672899e-06 7.874951e-06 2.3649805e-05
000330 5c 9e 3b 37 a3 5e 39 36 f0 da 00 37 6f 15 a1 37
       1.11829395e-05 2.7622234e-06 7.68037e-06 1.9202676e-05
000340 f9 9b f3 36 ae 0f 00 37 31 b7 0d 37 7b 68 4b 37
       7.260122e-06 7.633045e-06 8.4469075e-06 1.2124069e-05
000350 a9 9f df 37 8d 11 4f 37 12 45 2e 37 94 26 1a 37
       2.665802e-05 1.2342248e-05 1.038729e-05 9.1880975e-06
000360 00 7c 20 37 ac 66 bd 36 4c 19 ed 37 27 19 14 38
       9.565614e-06 5.6445915e-06 2.8264381e-05 3.5309375e-05
000370 04 20 ca 36 46 01 02 37 40 56 66 37 b7 dc 2f 36
       6.0237962e-06 7.7489e-06 1.372915e-05 2.6205505e-06
000380 dc 59 6c 37 6c 32 cf 36 d1 f6 b7 36 d0 40 71 37
       1.4087618e-05 6.1749506e-06 5.482558e-06 1.437981e-05
000390 3b 69 42 37 c0 c1 25 36 14 b1 d1 36 90 5b 84 37
       1.1587802e-05 2.4699693e-06 6.2493e-06 1.5778263e-05
0003a0 1a 39 1d 37 03 0d 03 36 78 45 16 37 59 c4 76 37
       9.371224e-06 1.9528095e-06 8.956871e-06 1.4708458e-05
0003b0 3c 0e 9e 36 69 75 f5 36 2d 30 c9 36 b6 96 2a 37
       4.710424e-06 7.3152373e-06 5.995875e-06 1.016788e-05
0003c0 4c cb f1 36 c4 8d 27 37 ca c6 06 37 1e 63 0f 37
       7.2060266e-06 9.986983e-06 8.033307e-06 8.546542e-06
0003d0 4a 79 09 37 4e 9c 63 36 83 07 34 37 46 5c 90 36
       8.194076e-06 3.3916617e-06 1.0730585e-05 4.3022765e-06
0003e0 cf c6 0b 37 24 24 a1 36 3c 66 89 37 36 92 d0 35
       8.331334e-06 4.802381e-06 1.637928e-05 1.5539761e-06
0003f0 cf 58 8d 37 17 24 44 36 30 b3 dd 36 74 11 9d 36
       1.6849865e-05 2.9227283e-06 6.6071734e-06 4.6809964e-06

exp_avg f4 [45]
000000 29 da a1 3b ca e4 bb 3b 43 1a 99 bb 32 19 b0 3a
       0.004939337 0.005734061 -0.00467232 0.0013435243
000010 39 58 f9 bb ed 0b 39 bc 52 81 6e bc a1 03 ec ba
       -0.007609394 -0.011294347 -0.0145572 -0.0018006453
000020 d1 61 ea bb 83 bf 8f bc b3 0b 97 3b c0 da 15 bc
       -0.007152774 -0.017547375 0.004609549 -0.009146392
000030 be b5 66 3a 50 0a e2 ba 37 6e e3 bb 3e 02 e1 3a
       0.00088008854 -0.0017245505 -0.006940629 0.0017166806
000040 a1 13 94 3b 97 aa 80 39 7b 36 a9 bb d1 07 c9 3a
       0.0045189415 0.00024541162 -0.0051639653 0.0015337412
000050 73 3e 83 3a 7d 84 29 bc 26 8f 20 3c 44 68 1f bc
       0.0010013118 -0.010346529 0.009799754 -0.009729449
000060 0c d3 b8 3a 35 53 10 bb 05 f2 da 39 b7 03 ff bb
       0.0014100983 -0.0022022252 0.0004176052 -0.0077824253
000070 75 2e 38 bc cd be 9a bc f9 9e b3 3b 44 41 3f 3b
       -0.011241545 -0.018889809 0.0054815975 0.0029183188
000080 54 fc dd 3b d0 93 2d 3b e9 c7 04 bc 19 e4 72 3c
       0.0067744646 0.0026485808 -0.008104303 0.0148248905
000090 72 65 92 bb 4e d8 0a bc b6 4f 1d 3b f4 af 9e bc
       -0.0044676596 -0.008474423 0.002400381 -0.01937101
0000a0 6d 76 50 3b e1 da 49 3c 7a 9b a8 3b b6 5a cf bb
       0.0031808869 0.012320251 0.0051454874 -0.0063279523
0000b0 2b e8 81 bb
       -0.003964444

exp_avg_sq f4 [45]
000000 da 46 c0 36 15 63 0a 38 fb 7d 0a 37 6e a2 bd 37
       5.730294e-06 3.299404e-05 8.254773e-06 2.2606193e-05
000010 e5 85 dd 36 a7 3c 2b 38 db d8 9e 39 3e 46 c5 37
       6.6019006e-06 4.0826064e-05 0.00030297678 2.351694e-05
000020 ab 8b fc 37 e6 c8 16 38 3d 58 76 37 bb 14 e7 36
       3.0105779e-05 3.5949888e-05 1.4683287e-05 6.88675e-06
000030 54 26 d7 37 9a a6 50 36 06 b9 51 38 00 ca de 36
       2.5647845e-05 3.109139e-06 5.00018e-05 6.6396315e-06
000040 db 37 58 38 07 fd 95 37 fd 67 83 35 25 9a a0 36
       5.1550433e-05 1.788001e-05 9.790525e-07 4.7863164e-06
000050 0e ea 88 35 37 cd ce 37 cf 3d 50 37 14 29 4f 38
       1.0200908e-06 2.4652674e-05 1.2412157e-05 4.9390903e-05
000060 74 9d 89 38 b4 77 8d 37 bd 19 9e 36 e4 45 e2 36
       6.561997e-05 1.6864251e-05 4.7117633e-06 6.743461e-06
000070 38 26 ca 37 c3 84 f9 37 f8 ee 95 37 e4 5b ad 35
       2.4098073e-05 2.9744935e-05 1.7873463e-05 1.2916248e-06
000080 10 ab cd 36 03 08 b7 36 45 1e 6c 37 14 49 5c 39
       6.1293904e-06 5.4547577e-06 1.4073744e-05 0.00021008059
000090 28 59 64 38 03 fa 0c 37 2a cd 81 36 a5 4d e8 38
       5.444247e-05 8.402861e-06 3.868384e-06 0.000110770845
0000a0 e4 c9 bc 37 88 6b b9 38 b8 68 7b 38 64 6b 62 38
       2.2505359e-05 8.841517e-05 5.994059e-05 5.3982614e-05
0000b0 5b 48 d7 37
       2.566369e-05

exp_avg f4 [3, 45]
000000 49 21 e0 bc df e6 ad bc cb 76 5c bb 1b 8e 11 bc
       -0.027359622 -0.021228252 -0.0033640142 -0.008883978
000010 2a 29 66 3c 02 4b 94 bb 64 7f ba bc 2e 68 cb bb
       0.0140479 -0.004525543 -0.022765823 -0.0062074875
000020 2f 08 0d bd 46 b0 3c 3d a7 ca 0d bd 64 71 04 3b
       -0.034431633 0.046066545 -0.034617092 0.0020209188
000030 90 be 83 3b e7 89 95 3a 26 dc 89 3b 2d 4e 4b bc
       0.0040205196 0.0011408896 0.004207152 -0.012408775
000040 df 1b fb 3c 5b f0 66 3c 3c 0d 0d 3d 07 1d 83 3b
       0.030652938 0.014095391 0.03443645 0.004001263
000050 e9 35 9c bc 50 9a 05 3d cc 0e e0 bb 68 0b 51 3b
       -0.019068675 0.032617867 -0.0068377014 0.0031897668
000060 94 d9 1d 3d a6 a2 c7 3c d8 ab 86 3b 98 ef 1a bc
       0.038537577 0.024369549 0.004109841 -0.009456538
000070 a9 20 c3 3b a4 d7 0c 3d 9b b7 c2 3c b7 44 66 bd
       0.005954821 0.03438534 0.02376919 -0.056217875
000080 60 e7 85 3c ca a0 8c 3c 0b fe 38 3d d7 3b 87 bc
       0.01634568 0.017166514 0.04516415 -0.016508026
000090 8d c1 0a bc e5 3d d1 3c d0 b4 fc 3b 52 60 ca 3c
       -0.008468998 0.025542209 0.007711984 0.024704132
0000a0 ff f3 2b bc f9 ac 21 bc 5a 61 3d bc 84 6d 2a 3b
       -0.010495185 -0.0098679 -0.011558855 0.0026005218
0000b0 1e 4a 02 bc 04 47 a7 3a 68 f6 91 bb 5e c3 9b 3c
       -0.007952241 0.0012762253 -0.0044544227 0.019014057
0000c0 12 71 2f bd 2b 62 97 bc a8 4b 0a bc 38 e7 fa 3c
       -0.04283244 -0.018479427 -0.008440889 0.030627832
0000d0 f6 16 45 3b 1f 7b de 3b e8 22 4e bd d2 44 67 3a
       0.00300735 0.0067895795 -0.050326258 0.0008822206
0000e0 35 04 80 3c 51 a2 c3 3c 9c d6 da 3c 07 03 00 bc
       0.015627006 0.02388111 0.026713662 -0.007813222
0000f0 00 f3 63 bc 54 44 eb bc e9 36 45 3c 1b 5b 92 bc
       -0.013912916 -0.028719105 0.012037017 -0.017865708
000100 62 be 73 bc bd e6 f6 3b c4 88 d1 bc 60 e3 0b 3d
       -0.014876934 0.0075348304 -0.02557791 0.03415239
000110 29 93 80 3c 8c fc 8f bb a6 8a b1 3b 43 41 bb 3c
       0.015695171 -0.0043941196 0.0054181395 0.022858268
000120 86 45 a0 3c 96 41 8a bc a8 1c 6f 3c c5 99 dd 3c
       0.019564401 -0.016876977 0.0145942345 0.027050862
000130 b8 11 ba 3c 5c 9c 03 bd eb f8 ac bc 69 99 18 bd
       0.022713527 -0.032131538 -0.021114787 -0.03725568
000140 4b 39 1b bc 6e d7 bc 3c 8d 13 03 3c d8 64 ea 3c
       -0.009474109 0.023051944 0.008000267 0.02861254
000150 77 e9 d0 bc 48 ae 15 bb 66 dc 6a bc 99 09 4b bd
       -0.02550195 -0.0022839475 -0.014334774 -0.0495697
000160 20 05 bb 3b c1 20 b2 bc 12 89 e0 bb 0b 05 70 bc
       0.005707398 -0.021744134 -0.0068522776 -0.01464964
000170 d7 1f 9e bc 14 5c b3 3c 80 82 19 3c 71 12 b9 bc
       -0.019302292 0.021894492 0.0093694925 -0.022591801
000180 a0 95 d9 bc d7 42 a5 3b 3d 0a c4 3c f7 15 07 bc
       -0.026560605 0.0050433683 0.023930663 -0.008244983
000190 05 06 6b bc 3f f0 aa 3b 38 53 6a 3c 06 c3 22 bc
       -0.014344697 0.005216628 0.014302067 -0.0099341925
0001a0 63 a3 86 bb 87 0d 0c 3c 5b 7a 65 bc 66 42 86 3b
       -0.0041088327 0.008548147 -0.014006223 0.004097271
0001b0 c3 8c b3 3c 28 a2 39 3c cc 1c a8 3c 62 c4 e0 bc
       0.021917706 0.011330165 0.020521544 -0.027437393
0001c0 3b 6b 10 3c d2 50 83 bc 32 e0 bc 3c e6 44 92 bc
       0.008814628 -0.016029749 0.023056123 -0.017855119
0001d0 2b 1c 2d 3c 66 df 28 bc 61 7d a5 3c 8e 8b 64 3c
       0.010565798 -0.010307169 0.020201387 0.013949288
0001e0 22 7a 3d 3c e7 15 59 3b a6 ee fe bc 69 f7 80 3c
       0.011564763 0.0033124627 -0.031119656 0.015742974
0001f0 04 c9 35 3c 64 9d 93 3c f6 5a 05 bc c2 8d 2b 3c
       0.011095289 0.018019386 -0.008139363 0.010470809
000200 94 be d6 bc dc e8 f4 bb 7b 55 ec ba bb 35 dd bc
       -0.026213922 -0.007474048 -0.0018030846 -0.02700316
000210 36 53 9f 3c 26 e6 2c bb b3 8c e1 3c
       0.019448858 -0.0026382296 0.02753291

exp_avg_sq f4 [3, 45]
000000 64 c2 44 39 f9 80 79 38 d6 80 24 38 12 97 30 38
       0.00018764433 5.948634e-05 3.9220635e-05 4.2102365e-05
000010 ab 72 f1 37 22 b8 8a 37 ee b5 6b 39 f9 d2 d2 37
       2.8782835e-05 1.6536625e-05 0.0002247912 2.5132193e-05
000020 1a 0e 61 39 ee 42 8f 39 e7 66 04 39 9f 92 71 38
       0.00021462925 0.00027324952 0.00012626835 5.759543e-05
000030 48 ef 0a 37 83 18 00 38 6c 39 6e 38 71 9e 76 38
       8.281153e-06 3.0540406e-05 5.67971e-05 5.879853e-05
000040 3e 54 ca 38 fb 6a 8a 37 bc 65 83 38 ab e9 32 38
       9.647802e-05 1.6500699e-05 6.265516e-05 4.2656127e-05
000050 0d 9f b4 37 b2 be 21 39 67 9a 0c 37 9a fd 15 37
       2.1531736e-05 0.00015425196 8.3806e-06 8.940138e-06
000060 6f cb 3e 39 df c2 d4 38 aa 0e 7a 37 5d c3 2a 39
       0.00018195597 0.00010145245 1.4904575e-05 0.00016285242
000070 70 65 31 38 9c 65 96 38 75 e2 3a 39 8a 2d 51 39
       4.229456e-05 7.1714836e-05 0.00017822704 0.00019948758
000080 29 6f 5b 3a f6 a0 a0 38 ef d7 fd 38 46 10 c4 37
       0.0008370751 7.659376e-05 0.00012104201 2.3372599e-05
000090 06 a0 06 38 e2 8e 8e 38 9b 1f 4f 38 58 38 4a 39
       3.2097123e-05 6.797702e-05 4.938208e-05 0.00019285211
0000a0 53 81 55 38 07 d5 98 38 42 0d 6e 39 5d c1 c8 36
       5.09036e-05 7.287604e-05 0.00022702388 5.982975e-06
0000b0 fa ce 51 39 f6 76 2d 39 81 34 2d 38 97 d9 62 38
       0.00020008898 0.00016542882 4.1295312e-05 5.4085245e-05
0000c0 b5 11 6d 39 e8 c5 01 38 e8 cf 40 37 69 85 c5 39
       0.00022608678 3.094031e-05 1.1492499e-05 0.00037674166
0000d0 b3 84 89 38 a1 f3 86 38 1d 77 15 3a 30 15 9e 38
       6.557386e-05 6.434997e-05 0.0005701648 7.5379736e-05
0000e0 ea 32 b6 38 e8 cd 7f 38 58 43 e8 38 cb d0 b3 38
       8.68792e-05 6.0988503e-05 0.00011075166 8.574276e-05
0000f0 0c 79 3b 38 a1 5c 99 38 b1 07 06 38 18 92 e7 37
       4.4697008e-05 7.312862e-05 3.1955253e-05 2.7605376e-05
000100 8e ad df 38 a7 3d 85 37 79 be 29 39 91 4d f9 38
       0.00010665796 1.5883545e-05 0.00016188053 0.00011887693
000110 6d b0 34 38 63 cb 04 38 1c 9b 24 39 10 f0 89 38
       4.3079654e-05 3.166067e-05 0.00015698042 6.577384e-05
000120 0c 77 64 39 1c 95 a5 38 54 b0 61 37 75 62 f5 37
       0.00021788123 7.895587e-05 1.34521e-05 2.9252124e-05
000130 9c 5e 80 38 69 d6 81 3a 8d ed 60 38 85 dc 9c 38
       6.121138e-05 0.0009905818 5.3626998e-05 7.4797346e-05
000140 da f9 00 38 a2 09 5f 38 fc f7 df 38 12 cf 35 39
       3.075027e-05 5.3176314e-05 0.00010679659 0.00017338645
000150 ad 7d 6d 39 31 0c 72 38 8c a1 2d 39 9e 4a 36 3a
       0.00022648899 5.770865e-05 0.00016558747 0.0006953868
000160 4e d5 a8 37 02 68 e0 39 43 a3 08 37 64 b7 64 38
       2.0126488e-05 0.000428021 8.144244e-06 5.4530232e-05
000170 73 f5 19 38 16 7f d2 37 7e c2 ab 36 85 07 77 38
       3.6706635e-05 2.509313e-05 5.118839e-06 5.8896392e-05
000180 44 34 e5 38 cf f2 96 36 c9 8c 03 38 c5 65 30 38
       0.00010929306 4.498615e-06 3.136395e-05 4.205645e-05
000190 f5 84 52 37 9d 23 e2 35 86 b7 89 37 1e b3 18 37
       1.2547932e-05 1.6848677e-06 1.6417132e-05 9.10161e-06
0001a0 64 93 81 36 69 f6 27 37 5d ad e9 36 ca 85 42 35
       3.861658e-06 1.00113475e-05 6.9641233e-06 7.246532e-07
0001b0 87 f8 55 38 f6 40 9f 37 5c 0b 01 38 54 41 42 38
       5.1014616e-05 1.8984527e-05 3.0766576e-05 4.6314046e-05
0001c0 99 48 5a 37 32 6a 4c 37 f7 48 74 38 b0 eb c8 37
       1.30107155e-05 1.2184073e-05 5.8242087e-05 2.3951608e-05
0001d0 b8 a7 c0 36 e9 29 19 37 e6 a8 1a 38 a5 40 fa 37
       5.741571e-06 9.129269e-06 3.687376e-05 2.9832425e-05
0001e0 f3 d9 0e 38 12 be 8e 35 d8 6a d0 38 ef 62 09 37
       3.405842e-05 1.0635142e-06 9.938114e-05 8.188871e-06
0001f0 f5 94 ae 36 db 45 26 38 18 38 54 37 71 09 05 37
       5.202945e-06 3.9642542e-05 1.2649245e-05 7.929616e-06
000200 fc 70 11 38 35 13 d2 36 8e 15 e3 35 8e 33 96 38
       3.467592e-05 6.2607237e-06 1.6919091e-06 7.16216e-05
000210 2b 2b 18 38 1f 76 2b 35 50 94 4d 38
       3.6279827e-05 6.3874353e-07 4.9013935e-05

exp_avg f4 [3]
000000 2d 54 89 3d 34 89 65 3c 69 04 af 3c
       0.067055084 0.014009763 0.021364408

exp_avg_sq f4 [3]
000000 48 be 91 3a 9e b2 38 3a bc be 45 38
       0.001111933 0.0007045659 4.7146095e-05

exp_avg f4 [3, 45]
000000 51 bd 5e bc 2d b0 10 3b 55 08 6b bc a8 2e 28 3b
       -0.013594941 0.0022077665 -0.014345248 0.0025662575
000010 26 63 2a 3c 87 a0 3c 3b c1 67 79 bc f5 24 44 bb
       0.010399615 0.0028782205 -0.015222491 -0.0029929255
000020 7e e1 55 bb c9 dd b4 ba cc 14 59 bb a0 a2 bb ba
       -0.0032635625 -0.0013799007 -0.0033123968 -0.0014315434
000030 7c 85 fb 3b 43 b9 6f bc 9e 96 2d bb 01 97 e2 bb
       0.0076758247 -0.014631572 -0.002648748 -0.0069149737
000040 cb e8 7e 3a b4 90 ea 3b 27 db f7 3b 45 16 ea 3b
       0.000972402 0.0071583632 0.007563967 0.007143768
000050 e5 70 8b bb 50 96 c9 38 6d b5 49 3b 82 ba f4 bb
       -0.0042554014 9.612425e-05 0.0030778304 -0.0074685225
000060 10 c5 bd 3a 2a c9 12 3b d0 63 24 38 d2 33 ca ba
       0.0014478285 0.0022397735 3.9193605e-05 -0.0015426821
000070 a9 18 1f 3c 81 d7 40 3c 84 03 2f 3c 4f 2b 09 bc
       0.009710469 0.01177013 0.0106819905 -0.008372142
000080 98 2f dc 39 3d 7c 1e bc 5b bd cd 3b 97 0f 53 3c
       0.0004199713 -0.009673175 0.0062786764 0.012882135
000090 3d 35 8f bb bc dd 8b 3b c3 6e ee 3b 61 50 ad bb
       -0.00437036 0.004268376 0.0072763874 -0.005289123
0000a0 1a e5 62 3a 42 cf a1 ba 58 55 6c bb e5 46 93 3b
       0.00086553546 -0.0012345093 -0.003606161 0.0044945353
0000b0 a3 ec 34 bc d1 af 43 bc 01 b6 ea bb 72 60 35 bc
       -0.011042747 -0.011943773 -0.00716281 -0.011070358
0000c0 e5 d3 c2 bb cf ee 09 3c 8e bd ae ba f3 66 58 bc
       -0.00594567 0.008418753 -0.0013331638 -0.013208139
0000d0 41 cf 0b bb 4a b7 57 bc e9 cf ab 3c e8 9f 4e bc
       -0.002133325 -0.013166258 0.020973163 -0.012611367
0000e0 78 b6 34 3c 93 1e 31 bb 03 87 bb bb fd 91 9d 3b
       0.011029832 -0.002702628 -0.0057228818 0.004808663
0000f0 ab b6 bd 3b 01 e2 17 3b a8 c8 8d 3c 7c ae a7 ba
       0.005789598 0.002317548 0.017307594 -0.0012793089
000100 08 c6 43 3c 06 c1 60 bc 53 a9 3f bb 10 7f 27 ba
       0.01194907 -0.013717895 -0.0029245212 -0.0006389478
000110 09 38 15 3a 41 19 d7 3b 55 4b 0e bb 6e 6b 99 bc
       0.0005692249 0.00656429 -0.0021712382 -0.018727984
000120 ed e7 88 bb f1 04 a1 3b 57 3a 8c bb be 91 79 ba
       -0.0041780383 0.004913919 -0.0042794156 -0.00095203135
000130 a2 af 7e bc ef 6c 85 3b 3e 12 01 bc 58 36 16 3c
       -0.015544804 0.004071824 -0.007877884 0.00916823
000140 74 0b 4f 3b 93 99 87 bc 93 32 f6 ba b8 1e d0 bb
       0.003159252 -0.016552722 -0.0018783383 -0.006351318
000150 e6 7d ff 3b 38 bc 12 39 23 f3 60 3c 02 7d 45 bb
       0.0077969907 0.00013993762 0.013729843 -0.0030134325
000160 4e 08 11 bb 14 97 80 bc e7 11 f2 bb 6a bd 95 3c
       -0.0022130194 -0.01569704 -0.007387388 0.018278796
000170 b8 e7 41 bb 23 62 09 3c ec 25 a5 3c 36 18 14 3c
       -0.0029587578 0.008385214 0.020159684 0.009038975
000180 eb 61 a6 bc 26 df 12 bc 4a 81 b4 bb 70 9a 52 3c
       -0.020310363 -0.008964336 -0.0055085765 0.012854204
000190 12 f7 a7 bb dc 0b 9e bc f6 19 5a bc 40 bd 4f bc
       -0.0051258886 -0.019292764 -0.013311854 -0.012679398
0001a0 84 d1 1f bc 81 a5 95 b9 71 20 99 3c db 69 04 3c
       -0.009754542 -0.00028542805 0.018692227 0.008081879
0001b0 79 33 c5 3a 55 be 69 ba da fd 95 3a 08 aa 27 38
       0.0015045247 -0.00089166063 0.0011443452 3.9974257e-05
0001c0 f8 85 d7 bb dc ea 9e bb 32 f1 e9 39 b7 e5 6f bb
       -0.0065772496 -0.0048497748 0.00044620928 -0.0036605427
0001d0 cf 99 13 bb 0b 1e 5f bc d3 8a 23 3c b1 3c 0b 3c
       -0.0022522097 -0.013618003 0.009981829 0.008498357
0001e0 b7 ee cc bb 2a 4a 37 bc 2a 02 8e 3c ac 64 1d 3b
       -0.006254043 -0.011187116 0.017335016 0.0024016304
0001f0 ce 08 6c 3c 42 b8 8e 3a 06 ee c1 3a d2 9f 37 3b
       0.014406396 0.0010888653 0.0014795668 0.0028018844
000200 88 7e 0b bb 30 40 97 3a 3b 22 32 bc de 50 69 3c
       -0.0021285135 0.0011539515 -0.010872419 0.014240472
000210 2f 3d a9 3c c1 31 b1 ba f4 42 25 3b
       0.020659057 -0.0013518856 0.002521691
