lightning_logs/version_1/checkpoints/epoch=9632-step=9633.ckpt (torch, 32383 bytes, 25 tensors)

encoder.dense1.weight f4 [45, 28]
0	0xbec30703	-0.38091287
1	0xbbada9b2	-0.0052997703
2	0xbe9e8431	-0.3096023
3	0x3a97d3d4	0.0011583515
4	0x3c702968	0.0146583095
5	0xbd82f587	-0.06394487
6	0xbf4e2fa8	-0.8054147
7	0x3d3a57e7	0.045493986
8	0xbc86331f	-0.016381798
9	0xbfb7cc1c	-1.4359164
10	0xbf4746f8	-0.77842665
11	0xbe8d25c6	-0.2756788
12	0xbf863ece	-1.0487916
13	0xbf0ca4c9	-0.5493894
14	0xbbd3b67b	-0.0064609624
15	0xbf607ecb	-0.8769347
16	0xbd5ca6bf	-0.05386996
17	0x3ccf6e87	0.025321258
18	0xbd7d9fda	-0.061920024
19	0xbf4a5d5d	-0.7904871
20	0xbf62e9be	-0.8863791
21	0xbcfa462b	-0.030551037
22	0x3ccfcefe	0.025367256
23	0x3b948426	0.004532355
24	0xbf0546e9	-0.52061325
25	0xbd653b3c	-0.055964693
26	0xbf37c8e0	-0.71790886
27	0xbd2a7931	-0.041619483
28	0x3c8670d7	0.016411228
29	0x3d188bb8	0.03724262
30	0x3cced089	0.025245922
31	0x3dc1e207	0.094669394
32	0xbd24cbbf	-0.04023337
33	0xbd0fc98d	-0.035104323
34	0xbe13f205	-0.14447792
35	0x3c5f7b98	0.013640307
36	0xbdb872e6	-0.0900629
37	0x3e914351	0.2837167
38	0x3dd7e517	0.10541742
39	0xbd8a1fca	-0.067443445
40	0x3e13add4	0.14421779
41	0x3d46f6d2	0.04857523
42	0x3dce7c3b	0.10082289
43	0x3e38bf2f	0.18041681
44	0x3d36dff9	0.04464719
45	0x3db042aa	0.08606465
46	0xbe4c151f	-0.19929932
47	0xbe01bd7b	-0.12669937
48	0x3e023405	0.12715156
49	0xbc841690	-0.01612404
50	0x3cb2aaa9	0.021809893
51	0x3d8e5d57	0.06951397
52	0xbdb7c46d	-0.08973012
53	0xbe18634e	-0.14881632
54	0x3dca9112	0.09890951
55	0xbd10947d	-0.03529786
56	0x3d0f24c7	0.034947183
57	0x3e1a07b7	0.15042005
58	0x3d528b4b	0.05140237
59	0xbcb94b5c	-0.022618942
60	0xbe0ceca3	-0.13762145
61	0xbce649b5	-0.028111318
62	0xbdbc3891	-0.09190477
63	0x3e0e53ee	0.13899204
64	0xbd810985	-0.06300644
65	0xbba04aa3	-0.00489171
66	0xbdc4fef8	-0.09618944
67	0xbe50c5af	-0.2038791
68	0xbe350a7a	-0.17679778
69	0x3bd999a1	0.0066406284
70	0x3d7a4dee	0.061109476
71	0xbdd7fd5c	-0.10546371
72	0x3e9088f2	0.2822948
73	0xbd17c399	-0.03705177
74	0xbcf380f2	-0.029724572
75	0xbe3e6df0	-0.18596625
76	0x3c793bb8	0.015211992
77	0xbd9b3550	-0.07578528
78	0x3e1ca4be	0.15297219
79	0x3ea475ec	0.32121217
80	0xbd8d5ba3	-0.06902244
81	0x3e0a3d26	0.13499889
82	0x3d1c04f3	0.038090657
83	0xbd1953ab	-0.037433308
84	0x3c31c3af	0.010849877
85	0x3e3b14d6	0.18269667
86	0x3d0ac2e2	0.03387726
87	0xbd2df062	-0.042465575
88	0x3dcb4eff	0.09927177
89	0xbdd13199	-0.10214538
90	0x3d7b725d	0.061388362
91	0x3cde942c	0.027170263
92	0xbd2b7c42	-0.04186655
93	0xbe31ceff	-0.17364119
94	0x3d4c1fd4	0.04983504
95	0xbdecaec6	-0.11556773
96	0xbe16d220	-0.14728594
97	0xbe5eadaa	-0.21745935
98	0x3e01b7a4	0.1266771
99	0x3e683119	0.2267498
100	0x3c83d158	0.016091034
101	0xbcc557b0	-0.024089664
102	0xbe25d90a	-0.16196075
103	0x3cb9c3dd	0.022676403
104	0xbcc411ee	-0.02393433
105	0x3d1cb6fa	0.038260438
106	0x3e0ffee3	0.14062075
107	0x3e4cc0df	0.1999545
108	0x3d2a4a4c	0.04157476
109	0xbbafb1aa	-0.0053617554
110	0xbe72f43c	-0.2372598
111	0x3e05b5ed	0.1305768
112	0x3d523cd7	0.051327553
113	0xbd277a5b	-0.04088817
114	0x3d2b548c	0.041828677
115	0xbdedf9c3	-0.11619904
116	0xbd997710	-0.074934125
117	0xbd93c5cc	-0.07215461
118	0x3db94115	0.090456165
119	0xbb7f3dc0	-0.0038946718
120	0xbdc668cb	-0.096879564
121	0x3eca6a6a	0.39534312
122	0x3e4025d7	0.18764435
123	0xbc3678bb	-0.011137183
124	0x3e92b067	0.2865021
125	0x3e2c8631	0.16848065
126	0xbdce98ad	-0.10087714
127	0x3df48b45	0.11940626
128	0xbdeca358	-0.11554593
129	0xbdf2bb82	-0.118521705
130	0xbdc63354	-0.09677759
131	0x3e375c70	0.17906356
132	0x3dd4fb21	0.103994615
133	0xbd60a09b	-0.054840665
134	0xbcd92bb7	-0.026510103
135	0xbd641c25	-0.055690903
136	0x3e2729ed	0.16324587
137	0xbe2f6e8e	-0.17132017
138	0x3cd69ab0	0.026196808
139	0xbdbe5158	-0.09292859
140	0xbd316148	-0.043305665
141	0xbd1780c4	-0.036988035
142	0xbda5d9f8	-0.08098215
143	0x3e49f183	0.19721036
144	0x3d84638f	0.06464302
145	0xbdf3685b	-0.118851386
146	0xbcf551e4	-0.029946275
147	0xbde1a236	-0.110172674
148	0x3e3c6738	0.1839875
149	0x3ce10324	0.027467318
150	0xbd328d14	-0.043591574
151	0x3a2d771f	0.00066171767
152	0x3dde4953	0.10853829
153	0x3ce631ad	0.02809986
154	0xbdc33ce9	-0.09533102
155	0xbdb17550	-0.08664954
156	0xbd94427e	-0.07239245
157	0xbde84d5d	-0.11342881
158	0xbe01d9c5	-0.12680729
159	0x3d7d87ef	0.061897215
160	0xbe2a72e2	-0.16645387
161	0x3d8ab5fe	0.067729935
162	0x3d18ac81	0.037273888
163	0xbe1124c6	-0.14174184
164	0x3de554e0	0.11197829
165	0x3cd63869	0.026149945
166	0xbd9fa311	-0.07794774
167	0x3ccff3a6	0.025384735
168	0x3e2185ab	0.15773647
169	0x3c5af888	0.0133649185
170	0x3e8c43f4	0.27395594
171	0x3d9ff320	0.07810044
172	0x3c3c6388	0.0114983395
173	0x3e4af13f	0.1981859
174	0xbc69fd53	-0.014281589
175	0xbcbb728c	-0.022881769
176	0x3bc6a8a5	0.0060625845
177	0x3e07c61f	0.13259171
178	0xbcb0939e	-0.021554764
179	0x3e040cba	0.1289548
180	0x3ce30f6a	0.027717311
181	0xbd034449	-0.032047544
182	0x3dc31ef2	0.09527387
183	0x3e87fc49	0.26559666
184	0xbdc6ddb5	-0.09710256
185	0xbc222de7	-0.009898639
186	0x3d403758	0.04692778
187	0x3dbbc0bb	0.0916762
188	0xbd3b2068	-0.045685202
189	0x39277233	0.00015968904
190	0xbdc88c48	-0.097923815
191	0xbd81a0d0	-0.06329501
192	0x3e2b4c46	0.16728315
193	0xbd05576f	-0.032554086
194	0x3ca34065	0.019928167
195	0x3e538a6f	0.20658277
196	0xbe37e8ae	-0.17959854
197	0xbc48b33d	-0.012249765
198	0x3ad5d95e	0.0016315391
199	0x3c7160c4	0.014732543
200	0x3c95431c	0.018220477
201	0x3dd1a774	0.10237017
202	0xbc752e4a	-0.014964649
203	0xbd7fd99c	-0.062463388
204	0x3d88b620	0.066753626
205	0xbe92d229	-0.28675964
206	0xbe935b26	-0.28780478
207	0xbe1ed883	-0.1551228
208	0xbef1224b	-0.47096476
209	0xbe90b182	-0.28260428
210	0x3d22f75e	0.03978669
211	0xbe995e59	-0.29954794
212	0x3db694b1	0.089150794
213	0xbcbeeee0	-0.023307264
214	0x3de0dbaa	0.109793976
215	0xbe925d5b	-0.2858685
216	0xbe12aa2b	-0.14322726
217	0x3d5cdda1	0.0539223
218	0xbd10929e	-0.035296075
219	0xbd5a7dc1	-0.053342585
220	0xbe4b4214	-0.19849426
221	0x3debacb8	0.11507553
222	0xbf095586	-0.53646123
223	0x3d961149	0.07327516
224	0x3aafb45d	0.0013405193
225	0x3e82305e	0.25427526
226	0xbd931f11	-0.0718366
227	0x3e0feebe	0.14055917
228	0xbc871145	-0.016487727
229	0x3e395d33	0.18101959
230	0xbe45edc1	-0.19328977
231	0x3d273c99	0.040829275
232	0x3def89f4	0.11696234
233	0xbcd10558	-0.025515243
234	0x3d69c8fb	0.057076436
235	0x3ce4af74	0.027915694
236	0x3e060d57	0.13091026
237	0xbbb60d73	-0.0055558025
238	0xbd66a913	-0.056313585
239	0xbde5a30a	-0.11212738
240	0xbe43561a	-0.19075814
241	0xbde355e7	-0.11100369
242	0x3daf5c4d	0.08562527
243	0xbcbac3bc	-0.022798412
244	0xbe0f6aef	-0.14005636
245	0x3d1cf088	0.038315326
246	0x3df9b715	0.12193123
247	0x3e504623	0.20339255
248	0xbd66e73c	-0.056372866
249	0xbdf05b33	-0.11736145
250	0x3d824717	0.063612156
251	0xbe32968a	-0.17440239
252	0xbd60e0c4	-0.054901853
253	0xbd0e2d10	-0.034710944
254	0x3cc97e1c	0.024596266
255	0xbd0580d3	-0.03259356

encoder.dense1.bias f4 [45]
0	0x3f30ccc3	0.6906244
1	0xbc9f7996	-0.019467156
2	0x3ce1dc74	0.02757094
3	0x3e155e09	0.14586653
4	0xbf4fb71d	-0.81138784
5	0x3f0bcaac	0.5460613
6	0xbdc1a8bf	-0.09456014
7	0x3d1f6646	0.038915895
8	0x3d47ed8b	0.048810523
9	0x3e13afae	0.14422485
10	0x3f022871	0.5084296
11	0xbee6ab50	-0.45052576
12	0x3b930b4e	0.0044874316
13	0xbd519a35	-0.051172454
14	0xbe475a11	-0.19467951
15	0x3f000097	0.500009
16	0xbe84eb8f	-0.25960967
17	0xbe1aa274	-0.15101033
18	0x3f09e68b	0.53867406
19	0xbe8a40b1	-0.2700248
20	0xbe84e786	-0.25957888
21	0xbd84511d	-0.06460784
22	0x3ed73852	0.42035156
23	0x3e8b6773	0.27227363
24	0x3ead0391	0.33791783
25	0x3b28c911	0.002575461
26	0xbe239041	-0.15972997
27	0x3dafc958	0.08583325
28	0x3ee59456	0.44839734
29	0x3f0cea70	0.55045223
30	0x3e09f532	0.13472441
31	0xbe6c3f55	-0.23071034
32	0xbe529fc6	-0.20568761
33	0x3ed1589d	0.4088792
34	0x3ec9ad18	0.39389873
35	0x3dfe2977	0.124102525
36	0x3ee6a5cc	0.45048368
37	0x3e7faa52	0.24967316
38	0x3eaa3a26	0.3324749
39	0x3f3be022	0.73388875
40	0x3eb906ca	0.36137992
41	0xbd5b5df7	-0.05355641
42	0x3e90e6d4	0.28301108
43	0x3e97f7e1	0.29681304
44	0x3e39e9df	0.18155621

encoder.dense3m.weight f4 [3, 45]
0	0x3ec9b049	0.39392307
1	0xbe8d932a	-0.2765134
2	0x3de78396	0.11304395
3	0x3e1029ef	0.14078496
4	0xbeb5e6b0	-0.35527563
5	0x3dd33ca4	0.10314301
6	0xbdb8d672	-0.09025277
7	0x3d658e30	0.056043804
8	0xbc64d7f9	-0.0139675075
9	0x3dad292b	0.08455118
10	0x3a3cff51	0.0007209676
11	0xbeb045e0	-0.3442831
12	0xbe597135	-0.21234591
13	0xbe8184f9	-0.25296763
14	0xbdd52722	-0.104078546
15	0x3e47efee	0.1952512
16	0xbd435812	-0.047691412
17	0xbc8705b0	-0.016482204
18	0x3e7018c8	0.23446953
19	0xbe855ce9	-0.26047447
20	0x3dac71cd	0.08420143
21	0xbdbc8422	-0.0920489
22	0x3d1f10ac	0.03883426
23	0x3e02b338	0.12763679
24	0x3d10a008	0.035308868
25	0xbe5d76ed	-0.21627398
26	0xbdd563e1	-0.10419441
27	0x3e844c88	0.2583964
28	0x3e0635c2	0.13106444
29	0xbeb98658	-0.3623531
30	0x3e945947	0.28974363
31	0xbdde02b6	-0.10840361
32	0xbe979e43	-0.29612932
33	0x3ec08dc0	0.37608147
34	0xbec6c469	-0.38821724
35	0x3e3351cf	0.17511676
36	0x3b1c8814	0.002388482
37	0xbd290bd8	-0.04127106
38	0x3e704fcb	0.23467939
39	0x3c480812	0.012208955
40	0xbdcecb0c	-0.10097322
41	0xbe0b9fd7	-0.13635193
42	0xbc87480d	-0.016513849
43	0x3de552ea	0.11197455
44	0xbe7877bd	-0.24264427
45	0x3a2b3df8	0.00065323664
46	0xbdb0dba1	-0.08635641
47	0xbe28a1b8	-0.16467941
48	0xbd9ed93d	-0.07756279
49	0x3d2c4020	0.042053342
50	0x3ef15983	0.47138605
51	0x3e6006fe	0.21877667
52	0x3ca08267	0.01959343
53	0xbdf5c1b9	-0.1199984
54	0x3d80c704	0.06287959
55	0x3cf39da0	0.029738247
56	0xbe93ae60	-0.28843975
57	0xbcc94e39	-0.024573432
58	0x3c6a99e2	0.014318915
59	0x3dacaa5f	0.08430933
60	0xbd500ffa	-0.050796486
61	0xbd922f0a	-0.07137878
62	0x3cc05389	0.023477333
63	0x3e202848	0.15640366
64	0xbc1876e9	-0.009305694
65	0xbd8307e3	-0.06397989
66	0x3e347006	0.17620859
67	0x3e01f1a2	0.12689832
68	0x3df801fb	0.12109753
69	0x3e6029ff	0.2189102
70	0x3d74348b	0.05962042
71	0xbdc8475d	-0.097792365
72	0x3d21031c	0.039309606
73	0x3eb36993	0.35041484
74	0x3cc9f5b2	0.02465329
75	0xbe0889c2	-0.133338
76	0xbe817c01	-0.2528992
77	0xbe8cf3e7	-0.27529833
78	0x3c2cc41e	0.010544805
79	0xbd3f1c13	-0.046657633
80	0x3cfb0f29	0.030646877
81	0xbeb98aac	-0.3623861
82	0x3d5da68e	0.054113917
83	0x3d309246	0.043108247
84	0x3d30260b	0.04300503
85	0x3ea0beef	0.3139567
86	0x3e06d137	0.13165747
87	0x3ecee647	0.40410063
88	0xbc390292	-0.011292117
89	0x3e2af699	0.16695632
90	0x3d381153	0.044938397
91	0x3e14b663	0.145227
92	0x3dc2b79a	0.095076755
93	0x39c705bd	0.00037960513
94	0x3e1f5907	0.15561305
95	0x3ecb13cc	0.3966354
96	0xbe38f5fa	-0.18062583
97	0xbd12da0d	-0.03585248
98	0x3df788e7	0.12086659
99	0x3dfd6f95	0.12374798
100	0x3e84d723	0.25945386
101	0xbe90cf1a	-0.28283006
102	0x3b38fb44	0.0028225938
103	0xbcadd15f	-0.021218
104	0xbe79e54b	-0.24403875
105	0xbeaaa605	-0.33329788
106	0xbe94b625	-0.29045215
107	0xbdecea2d	-0.11568103
108	0x3e8439ed	0.25825444
109	0x3e13e80c	0.14443988
110	0xbe9f5e0f	-0.3112645
111	0xbd79dea0	-0.061003327
112	0x3e63b36f	0.22236417
113	0x3e2ae735	0.16689761
114	0x3e5e1b8b	0.21690194
115	0xbe612df9	-0.21990193
116	0xbe355d42	-0.17711356
117	0xbe2c7d06	-0.16844568
118	0x3cd798db	0.026318004
119	0xbede3946	-0.4340307
120	0xbe122f55	-0.14275868
121	0xbc11793b	-0.008879001
122	0xbceb592d	-0.028729046
123	0x3e6777fb	0.22604363
124	0xbe1e1d58	-0.15440881
125	0xbdc3350b	-0.095316015
126	0x3ebbd42e	0.36685318
127	0x3e192097	0.14953838
128	0x3e4db13c	0.20087141
129	0x3f067229	0.52517945
130	0x3e54bab1	0.20774342
131	0xbce07253	-0.027398264
132	0xbdca6632	-0.098827735
133	0x3e1b7e8a	0.1518499
134	0x3e1514b6	0.14558682

encoder.dense3m.bias f4 [3]
0	0x3e9322d4	0.2873751
1	0x3e6ba805	0.23013313
2	0x3eaa380a	0.3324588

encoder.dense3s.weight f4 [3, 45]
0	0x3d432001	0.047637943
1	0xb9d909e5	-0.00041396837
2	0xbcda7612	-0.026667628
3	0xbdadd7cf	-0.08488428
4	0x3e7bcf19	0.2459072
5	0xbde3fa0a	-0.111316755
6	0x3cefaf24	0.029258318
7	0x3e98bd46	0.29831904
8	0xbb9a15e4	-0.0047023166
9	0x3c720861	0.0147725055
10	0xbd2e780d	-0.042594958
11	0x3ddfc44d	0.10926113
12	0x3dd00745	0.101576366
13	0x3db079a4	0.08616951
14	0xbda33cd8	-0.079705894
15	0xbdc73f75	-0.097289
16	0x3dc57053	0.09640565
17	0x3cc5a5bb	0.024126878
18	0xbe1435eb	-0.14473693
19	0x3d876b4b	0.066122614
20	0x3d0abc51	0.033871
21	0x3d8cb972	0.068713084
22	0xbd923a1d	-0.071399905
23	0xbd9fd005	-0.078033485
24	0xbd9a4c5c	-0.07534096
25	0x3dd0d248	0.10196358
26	0x3dde56b6	0.108563825
27	0x3b5f4d80	0.0034073293
28	0xbda7d348	-0.081945956
29	0x3e5d8fe6	0.21636924
30	0xbd01a4df	-0.031651374
31	0x3d3ee892	0.046608515
32	0xbc8eb6fd	-0.01742124
33	0xbe03ea01	-0.12882234
34	0x3ecdd41f	0.40200898
35	0xbcfc0b37	-0.030767066
36	0xbd2a096a	-0.041512884
37	0x3d632f5d	0.05546509
38	0xbd9aec57	-0.075646095
39	0x3ce271e1	0.027642192
40	0xbd7abd87	-0.061215904
41	0x3d4fc751	0.050727192
42	0xbc3278cd	-0.010893059
43	0xbdb4718a	-0.08810718
44	0x3cc75c91	0.024336131
45	0x3c135222	0.00899175
46	0xbd83823c	-0.064213246
47	0x3e4679ad	0.19382353
48	0x3d9f355f	0.077738516
49	0x3cb7564d	0.022380019
50	0xbd649b2b	-0.055812042
51	0x3d818305	0.06323818
52	0xbca15af3	-0.019696688
53	0x3d448593	0.04797895
54	0xbd855468	-0.0651024
55	0x3d42685e	0.047462814
56	0x3d4cd757	0.05001005
57	0xbdc9f397	-0.09860914
58	0x3c39c21e	0.011337785
59	0xbd9de75d	-0.07710145
60	0x3d20ee2d	0.039289642
61	0x3d4a904a	0.04945401
62	0xbdaea0a2	-0.08526732
63	0xbdb238e6	-0.08702259
64	0xbd1cdcc7	-0.038296487
65	0x3dd6e9ec	0.10493836
66	0xbca74b0a	-0.020421524
67	0xbe0b7ccb	-0.13621823
68	0x3e8fe21f	0.28102204
69	0xbe347365	-0.17622145
70	0x3ed702ad	0.4199423
71	0xbd18aa52	-0.037271805
72	0xbd8bf54c	-0.06833896
73	0xbb1f82f4	-0.0024339529
74	0x3c060e1f	0.008182078
75	0xbced7635	-0.02898703
76	0x3de31975	0.1108884
77	0x3d954a27	0.07289534
78	0xba85f213	-0.0010219238
79	0xbd75d330	-0.060015857
80	0x3cfe577c	0.031047575
81	0x3c43cdb6	0.011950901
82	0xbd7d32dc	-0.06181608
83	0xbd70dd51	-0.058804814
84	0x3ca22cf8	0.019796833
85	0x3dd6c1fb	0.104862176
86	0x3d4694b3	0.048481654
87	0xbd6bbd34	-0.057553485
88	0xbd2807f3	-0.041023206
89	0xbdfaacf0	-0.122400165
90	0x3d0edd2a	0.034878887
91	0xbd820105	-0.06347851
92	0x3b1b4a42	0.0023695384
93	0xbd826afc	-0.06368062
94	0xbdf40bcc	-0.119163126
95	0xbe42a3bb	-0.1900777
96	0x3d8f076a	0.06983836
97	0xbd728185	-0.05920555
98	0xbc2a44e5	-0.010392402
99	0xbe2e6b3d	-0.17033096
100	0xbd544298	-0.05182132
101	0x3e3fa4cf	0.18715213
102	0xbd849b9f	-0.06474995
103	0x3ce4675c	0.027881317
104	0xbd82819a	-0.06372376
105	0x3ec4acb7	0.3841302
106	0x3e1012a0	0.14069605
107	0x3d71c856	0.059028946
108	0xbe41779e	-0.18893287
109	0x3d66d50d	0.056355525
110	0x3e2912e0	0.16511106
111	0xbcc79e0a	-0.024367351
112	0xbdb35f05	-0.08758358
113	0xbdbaddd4	-0.091243416
114	0xbe3295a9	-0.17439903
115	0x3e1e973a	0.15487376
116	0x3d9be4a0	0.07611966
117	0x3d2e12bd	0.04249834
118	0xbd8cb605	-0.06870655
119	0x3e9acd69	0.3023484
120	0x3ae87dfa	0.0017737739
121	0xbcd3f45d	-0.025873357
122	0xbdde113c	-0.10843131
123	0xbe4d7112	-0.20062664
124	0x3e291b7d	0.16514392
125	0x3d416c7a	0.047222592
126	0xbddafba1	-0.10692526
127	0xbdffcb89	-0.12489993
128	0xbd96e93c	-0.07368705
129	0x3e4dcfec	0.20098847
130	0xbcae915e	-0.02130955
131	0xb9842fc4	-0.0002521259
132	0xbd42ccb2	-0.047558494
133	0xbe7568e9	-0.23965801
134	0xba725aec	-0.0009245116

encoder.dense3s.bias f4 [3]
0	0xbd78fe6b	-0.060789507
1	0xbe0309c7	-0.12796699
2	0xbe8e2998	-0.2776611

decoder.linear.bias f4 [28]
0	0x3f1beb86	0.60906255
1	0x3e0f3d3f	0.13988207
2	0xbf0eaf1f	-0.55735964
3	0x3f73a624	0.95175385
4	0x3f7da553	0.9908039
5	0xbf9c890a	-1.2229321
6	0xbf348c85	-0.70526916
7	0x3f9cce96	1.2250545
8	0x3f096f16	0.5368513
9	0xbfcb037d	-1.586044
10	0xbe3a22ca	-0.18177333
11	0x3fbd09fe	1.4768674
12	0xbf0e85f8	-0.5567317
13	0x3e2f106b	0.17096107
14	0xbeb82425	-0.35965076
15	0x3e60b7aa	0.21945062
16	0xbe6e9041	-0.23297216
17	0x3f100d60	0.5627041
18	0x3eb82ed2	0.3597322
19	0xbd52f189	-0.051499877
20	0xbf11faf2	-0.5702354
21	0xbf709c72	-0.93988717
22	0x3e83ad92	0.2571836
23	0xbf48cce6	-0.7843765
24	0xbdf5e7d7	-0.120071106
25	0xbf88d4e7	-1.0689973
26	0x3f8af4b0	1.0855923
27	0xbfd0c30f	-1.6309527

decoder.linear.weight_orig f4 [28, 3]
0	0xbf489868	-0.78357553
1	0x3eb606a6	0.35551947
2	0x3d4f8720	0.050665975
3	0x3e2791dc	0.16364235
4	0xbfb3f51b	-1.4059175
5	0xbe5e537e	-0.21711537
6	0xbf05c40a	-0.52252257
7	0xbee1b58a	-0.44083816
8	0xbfc330cc	-1.5249267
9	0xbe54819a	-0.20752564
10	0xbbf65c80	-0.007518351
11	0xbf6a51eb	-0.91531247
12	0x3f1107e2	0.56652653
13	0xbe93ebe6	-0.28890914
14	0xbf03bafb	-0.51457185
15	0xbdbac3dc	-0.091193885
16	0xbd9756c0	-0.07389593
17	0xbfb3f982	-1.4060519
18	0xbf8d5e12	-1.1044333
19	0xbef32f5f	-0.4749708
20	0xbfda26af	-1.7043055
21	0xbf03ffff	-0.51562494
22	0xbfac9216	-1.3482082
23	0x3dd472d0	0.10373461
24	0xbea28141	-0.31739238
25	0xbee27bbc	-0.44235027
26	0xbfaaa93c	-1.3332896
27	0xbfecfc89	-1.8514568
28	0x3d4de840	0.05027032
29	0x3e941b2e	0.28926986
30	0xbfb6dd35	-1.4286257
31	0xbf1090d4	-0.5647099
32	0xbed02317	-0.4065177
33	0xbf2b823a	-0.66995585
34	0x3eceaf46	0.40368098
35	0xbfa9e6fa	-1.3273613
36	0xbffa66d3	-1.956263
37	0x3bfc3d80	0.007697761
38	0x3cd72a80	0.026265383
39	0xbf97a381	-1.1846772
40	0xbd01eff0	-0.031722963
41	0x3ef1e820	0.4724741
42	0x3d883bd0	0.06652033
43	0xbeff51d5	-0.4986712
44	0xbff47809	-1.9099132
45	0xbfe412c9	-1.7818233
46	0x3f0a8c10	0.5411997
47	0xbfbd1e5e	-1.4774892
48	0x3b907180	0.0044080615
49	0xbfab00e8	-1.3359652
50	0xbfe39a64	-1.7781491
51	0xbda2ce0c	-0.079494566
52	0x3ebc9e2c	0.36839426
53	0xbf9cc244	-1.2246785
54	0xbe7bd062	-0.2459121
55	0xbef1b666	-0.4720947
56	0xbfb38e61	-1.4027826
57	0xbfc4214e	-1.5322664
58	0xbe949267	-0.29017946
59	0xbf21e5a9	-0.6324106
60	0xbfa88b11	-1.316744
61	0xbe51fe86	-0.20507249
62	0xbfc0b0d7	-1.5053967
63	0x3ed3c41a	0.4136055
64	0x3ee823dc	0.4533986
65	0xbfa20b3c	-1.2659678
66	0xbe5321e0	-0.20618391
67	0xbf81e490	-1.0147877
68	0xbe01ff84	-0.12695128
69	0x3ea96706	0.33086413
70	0xbfd0268c	-1.6261764
71	0xbec58a30	-0.3858199
72	0xbf84fa34	-1.0388856
73	0x3d3ffc20	0.046871305
74	0xbe614f66	-0.22002944
75	0x3e499ee0	0.19689512
76	0x3f07a234	0.5298188
77	0xbffa96f1	-1.9577314
78	0xbff06111	-1.8779622
79	0x3eb7af8e	0.35876125
80	0x3db885a8	0.09009868
81	0xbf109a28	-0.56485224
82	0x3f0533c6	0.52032125
83	0xbf720053	-0.94531745

decoder.linear.weight_mask f4 [28, 3]
0	0x3f800000	1.0
1	0x00000000	0.0
2	0x00000000	0.0
3	0x00000000	0.0
4	0x3f800000	1.0
5	0x00000000	0.0
6	0x3f800000	1.0
7	0x00000000	0.0
8	0x3f800000	1.0
9	0x00000000	0.0
10	0x00000000	0.0
11	0x3f800000	1.0
12	0x00000000	0.0
13	0x00000000	0.0
14	0x3f800000	1.0
15	0x00000000	0.0
16	0x00000000	0.0
17	0x3f800000	1.0
18	0x3f800000	1.0
19	0x00000000	0.0
20	0x3f800000	1.0
21	0x00000000	0.0
22	0x3f800000	1.0
23	0x00000000	0.0
24	0x00000000	0.0
25	0x00000000	0.0
26	0x3f800000	1.0
27	0x3f800000	1.0
28	0x00000000	0.0
29	0x00000000	0.0
30	0x3f800000	1.0
31	0x00000000	0.0
32	0x3f800000	1.0
33	0x3f800000	1.0
34	0x00000000	0.0
35	0x3f800000	1.0
36	0x3f800000	1.0
37	0x00000000	0.0
38	0x00000000	0.0
39	0x3f800000	1.0
40	0x00000000	0.0
41	0x00000000	0.0
42	0x00000000	0.0
43	0x00000000	0.0
44	0x3f800000	1.0
45	0x3f800000	1.0
46	0x00000000	0.0
47	0x3f800000	1.0
48	0x00000000	0.0
49	0x3f800000	1.0
50	0x3f800000	1.0
51	0x00000000	0.0
52	0x00000000	0.0
53	0x3f800000	1.0
54	0x00000000	0.0
55	0x00000000	0.0
56	0x3f800000	1.0
57	0x3f800000	1.0
58	0x00000000	0.0
59	0x3f800000	1.0
60	0x3f800000	1.0
61	0x00000000	0.0
62	0x3f800000	1.0
63	0x00000000	0.0
64	0x00000000	0.0
65	0x3f800000	1.0
66	0x00000000	0.0
67	0x3f800000	1.0
68	0x00000000	0.0
69	0x00000000	0.0
70	0x3f800000	1.0
71	0x00000000	0.0
72	0x3f800000	1.0
73	0x00000000	0.0
74	0x00000000	0.0
75	0x00000000	0.0
76	0x00000000	0.0
77	0x3f800000	1.0
78	0x3f800000	1.0
79	0x00000000	0.0
80	0x00000000	0.0
81	0x00000000	0.0
82	0x00000000	0.0
83	0x3f800000	1.0

exp_avg f4 [45, 28]
0	0xb88a4f75	-6.595153e-05
1	0xb897c9f6	-7.237859e-05
2	0xb9d0ffa9	-0.00039863333
3	0xb9bb55b4	-0.00035731273
4	0xb9f305e8	-0.00046352972
5	0xb928948b	-0.00016077065
6	0xb996c85d	-0.00028759512
7	0xb8f8f756	-0.000118716314
8	0xb9a39f5c	-0.00031208515
9	0xb6e2b886	-6.756806e-06
10	0xb8337308	-4.2784057e-05
11	0xb88b8648	-6.653048e-05
12	0x37e8cf3e	2.775306e-05
13	0xb8987edc	-7.271554e-05
14	0xb9719762	-0.00023039946
15	0x3899f338	7.3409115e-05
16	0xba0b09c8	-0.0005303887
17	0xb9dbf7ea	-0.00041955645
18	0xb9a8b323	-0.00032176924
19	0xb8a890ac	-8.0378115e-05
20	0xb83ba6e2	-4.4739696e-05
21	0xba11dc6c	-0.00055641565
22	0xb9da3290	-0.00041617872
23	0xb9537eca	-0.0002016976
24	0xb9579130	-0.00020558084
25	0x3909c324	0.00013138034
26	0x38e475d1	0.00010893832
27	0xb8b6bcbc	-8.713591e-05
28	0x3aa3da1e	0.0012500917
29	0x3ad01b3c	0.0015877257
30	0x3a940bf6	0.0011295069
31	0x3a4eb0b0	0.0007884605
32	0x3a7d72ae	0.00096682727
33	0x3980c0bf	0.0002455767
34	0x39848c15	0.0002528137
35	0x3a809ff6	0.0009813297
36	0x3ad0df12	0.0015935621
37	0x3a24054b	0.0006256892
38	0x3ab3fa15	0.0013731146
39	0x3aad3913	0.0013215862
40	0x3a9c6cd6	0.0011934291
41	0x3a671dad	0.0008816373
42	0x3a87fee3	0.0010375645
43	0x3a4d8481	0.0007839874
44	0x3adcb322	0.0016838054
45	0x3abbe7cf	0.0014336052
46	0x39cadc74	0.00038692693
47	0x3a4382b3	0.00074581354
48	0x3aa65500	0.0012690127
49	0x3a8aaf24	0.001058076
50	0x3ad9f081	0.0016627462
51	0x3ae82294	0.00177105
52	0x3a9ecc3e	0.0012115312
53	0x37ba82d4	2.223385e-05
54	0x3a569abd	0.000818651
55	0x39d0921a	0.00039781706
56	0x3a09b816	0.0005253566
57	0x39a1913c	0.0003081652
58	0xb9ee2c82	-0.00045428058
59	0x3a033755	0.00050054985
60	0xb95743c3	-0.00020529241
61	0xba0f962f	-0.0005477396
62	0xb8b7b990	-8.760684e-05
63	0x39290a85	0.00016121015
64	0xb9d8b235	-0.00041331505
65	0x37d1b79e	2.5000245e-05
66	0xb927c142	-0.00015998355
67	0x39a00bd0	0.0003052638
68	0x38cdfe23	9.8224984e-05
69	0x3a19299d	0.00058426877
70	0xb9e601a6	-0.00043870247
71	0x39e2b145	0.00043238155
72	0xb9b92b37	-0.00035318147
73	0x3990ebe6	0.00027641578
74	0x39c5d887	0.00037736094
75	0x36c7ea5c	5.957945e-06
76	0x3952e2bb	0.00020111624
77	0xba41d9bd	-0.0007394811
78	0xba1b12bf	-0.0005915574
79	0xba0de5f5	-0.00054129894
80	0xb957dfa9	-0.00020587318
81	0x398f5cd3	0.00027344245
82	0x3a4fda7a	0.0007928979
83	0x39ce008d	0.00039291792
84	0x393aa57a	0.00017799987
85	0x3678a980	3.7053542e-06
86	0xba1c71a0	-0.0005967859
87	0xb7d9efe0	-2.5980116e-05
88	0xba139076	-0.00056291313
89	0xba13b7c5	-0.0005634989
90	0xb943ca52	-0.0001867202
91	0xb90b2a14	-0.00013271748
92	0xb99d8323	-0.00030043078
93	0x391eff32	0.00015163122
94	0xb899f468	-7.341133e-05
95	0xb85ae4a0	-5.2188174e-05
96	0xb8759e00	-5.85597e-05
97	0x38fa5b38	0.0001193792
98	0xba3c2468	-0.0007177056
99	0x394cdce0	0.00019537238
100	0xb9c9fa8c	-0.0003852438
101	0xb97de7e6	-0.00024214349
102	0xb8571bc8	-5.1285868e-05
103	0xb7e1bbf0	-2.6909605e-05
104	0xb93212de	-0.00016982431
105	0xba5304e8	-0.00080497423
106	0xb9fb8e7f	-0.0004798062
107	0xb9fa908e	-0.00047791417
108	0xb98f3f49	-0.00027322237
109	0x399d9851	0.00030058858
110	0xb63ba600	-2.7961796e-06
111	0x396ca3b8	0.00022567704
112	0x3a42c228	0.0007429444
113	0x3aadba5a	0.001325439
114	0x3aa139b6	0.0012300524
115	0x3a5ebcc8	0.00084967585
116	0x3a9f519d	0.001215506
117	0x3a1fab76	0.00060909183
118	0x39de6698	0.00042419578
119	0x3a17db5c	0.000579288
120	0x3a8f1aea	0.0010918055
121	0x3a0ae375	0.0005298176
122	0x3a97746f	0.0011555086
123	0x3a5ee5f2	0.00085028925
124	0x3a8d9176	0.0010800797
125	0x3aac01d4	0.0013123103
126	0x3aaab642	0.0013024288
127	0x3a87c89e	0.0010359471
128	0x3a8e0a20	0.0010836758
129	0x3aad0ab0	0.0013202038
130	0x3a6e444e	0.00090891577
131	0x3a4900cc	0.000766766
132	0x3a7d2e5e	0.00096580933
133	0x3a8531a6	0.0010161891
134	0x3a8e15d9	0.0010840251
135	0x3a9eff96	0.0012130614
136	0x3a8b1905	0.0010612315
137	0x39b197c9	0.0003387316
138	0x3a2b29ea	0.0006529378
139	0x39cffbb3	0.00039669647
140	0x39e44478	0.00043538562
141	0x3abcb686	0.0014397658
142	0x3a5eaf9a	0.00084947946
143	0x3b187932	0.0023265597
144	0x3ac96d71	0.0015367699
145	0xbad51ae5	-0.0016258626
146	0xba9c7650	-0.0011937115
147	0x3a9af8de	0.0011823436
148	0xba8e1486	-0.0010839857
149	0x3a42662b	0.0007415737
150	0x3ada5c0c	0.0016659512
151	0x3ae8b318	0.0017753569
152	0x3aed9ec6	0.0018128983
153	0x3b4ab86d	0.003093268
154	0xbab7061a	-0.001396361
155	0x3b26c8d5	0.0025449295
156	0xbad308a6	-0.00161006
157	0x3a1c7dac	0.00059696543
158	0x39b11390	0.00033774646
159	0xba05459c	-0.000508392
160	0x3adbdde3	0.0016774501
161	0xbb3bde51	-0.0028666446
162	0xbad822fe	-0.0016489921
163	0xba85ef86	-0.0010218478
164	0xba916ae7	-0.0011094481
165	0x3b03a34d	0.0020086349
166	0x3ae9bb91	0.0017832388
167	0xb91848d0	-0.00014522974
168	0xba269b51	-0.00063555414
169	0xba5477bc	-0.0008105
170	0x3a27ad20	0.0006396342
171	0xba110f0c	-0.0005533553
172	0x3a4ba7a3	0.0007768815
173	0x3a46c3a4	0.00075822533
174	0x39f042ac	0.00045826042
175	0xb9c8fde5	-0.0003833614
176	0xb6fb6240	-7.4918207e-06
177	0xba17a7fb	-0.0005785224
178	0xba1f3048	-0.0006072563
179	0xba5e6108	-0.0008483087
180	0xbaa5866c	-0.0012628562
181	0xba85fa64	-0.0010221717
182	0x3a301afb	0.00067178876
183	0xba8b0143	-0.0010605234
184	0x39142004	0.00014126307
185	0xb9c019b3	-0.0003664024
186	0x388622c6	6.396095e-05
187	0x39b07de2	0.00033663126
188	0xba80aa1a	-0.0009816319
189	0x3a892de6	0.0010465949
190	0xb908ede0	-0.00013058586
191	0xb86d8cfa	-5.6636498e-05
192	0x39a96102	0.00032306468
193	0xba103a79	-0.0005501877
194	0xba8e886d	-0.0010874398
195	0xb9d081fa	-0.00039769692
196	0xb98bfab2	-0.0002669893
197	0x39282c0e	0.0001603814
198	0x38ebaa64	0.00011237411
199	0x38029662	3.113447e-05
200	0x3748a568	1.1959441e-05
201	0x3991c13f	0.00027800535
202	0x3986d821	0.000257195
203	0xb89ab7c3	-7.3775205e-05
204	0x3886ecea	6.4337466e-05
205	0xb887e5b2	-6.480086e-05
206	0x392180f6	0.00015402198
207	0xb84582ad	-4.709016e-05
208	0x3835267b	4.31896e-05
209	0x3898244a	7.254684e-05
210	0x38568742	5.1147545e-05
211	0xb8f9241c	-0.00011879971
212	0xb6deaf08	-6.636492e-06
213	0x3949faca	0.0001926228
214	0x39c7d21c	0.00038112781
215	0xb91b88da	-0.00014832933
216	0xb94ca8a3	-0.00019517778
217	0x390d57c1	0.00013479499
218	0x384a4704	4.822669e-05
219	0x3880ef30	6.148068e-05
220	0xb8b1e2b4	-8.4822444e-05
221	0x39415200	0.00018436462
222	0xb90fd45c	-0.00013716653
223	0x39dd0a82	0.00042160234
224	0x3a25945f	0.00063163595
225	0x3a30198a	0.0006717673
226	0x38b950e5	8.836555e-05
227	0x3a097a2f	0.0005244342
228	0x373d0540	1.12665e-05
229	0xb9863732	-0.00025599595
230	0x3665c000	3.4235418e-06
231	0x39efac5a	0.00045714044
232	0x3928c4f4	0.00016095099
233	0x3992e622	0.00028018752
234	0x3a057b60	0.00050919317
235	0x3a1c6159	0.00059654337
236	0x3a4bdb74	0.00077765365
237	0x3a329e29	0.0006813729
238	0xb8a466b8	-7.839262e-05
239	0x3a1c177e	0.00059544283
240	0x39761d92	0.00023471404
241	0x3a07fca0	0.00051874854
242	0x3971c0a7	0.0002305532
243	0x390e036f	0.00013543454
244	0x3a4339f0	0.0007447293
245	0xb980fd49	-0.00024602775
246	0x3948de22	0.00019156237
247	0x3949307e	0.00019186919
248	0x38b59a7f	8.65953e-05
249	0x3993a9a8	0.0002816443
250	0x3a5fb194	0.0008533236
251	0x398ed749	0.0002724475
252	0x394532ac	0.00018806261
253	0x3a3b8228	0.00071528787
254	0xb82d4a94	-4.131587e-05
255	0x3a569c48	0.000818674

exp_avg_sq f4 [45, 28]
0	0x363087ab	2.6305013e-06
1	0x3680ece2	3.842274e-06
2	0x35565f14	7.985957e-07
3	0x369c7151	4.662354e-06
4	0x36b72b19	5.458842e-06
5	0x358cffff	1.0505318e-06
6	0x344b4df2	1.8934205e-07
7	0x36c10e9e	5.75355e-06
8	0x3668e966	3.470655e-06
9	0x32abcf02	2.0001156e-08
10	0x34ab962e	3.1960502e-07
11	0x3667c63e	3.4537074e-06
12	0x340ee6cb	1.3308743e-07
13	0x358319a2	9.767721e-07
14	0x360aebda	2.0700886e-06
15	0x348597ff	2.4883772e-07
16	0x361abcce	2.3057687e-06
17	0x367ff0df	3.8138166e-06
18	0x364cf21d	3.0539297e-06
19	0x34974900	2.8179056e-07
20	0x34035392	1.2230728e-07
21	0x35bce174	1.4072707e-06
22	0x368ccb81	4.196016e-06
23	0x3620a53c	2.3938037e-06
24	0x35698da9	8.7005407e-07
25	0x359e4f47	1.179499e-06
26	0x35b99f84	1.3829999e-06
27	0x3541fc29	7.2265044e-07
28	0x3853e757	5.0521772e-05
29	0x380e8cee	3.398669e-05
30	0x37d846c6	2.5782163e-05
31	0x3864024f	5.4361586e-05
32	0x386b885c	5.615536e-05
33	0x377711a6	1.4726456e-05
34	0x37ddc8f2	2.6438825e-05
35	0x386c2d7a	5.6309138e-05
36	0x383cf3f3	4.504989e-05
37	0x375edf80	1.3284269e-05
38	0x380bb139	3.3305234e-05
39	0x3888c22b	6.521152e-05
40	0x37e2277c	2.6959686e-05
41	0x381fecb1	3.812899e-05
42	0x37f38ad0	2.9032497e-05
43	0x38371909	4.3653916e-05
44	0x38076b0a	3.2286196e-05
45	0x383f8604	4.566276e-05
46	0x38267451	3.9685812e-05
47	0x3817b0df	3.616593e-05
48	0x37f576bb	2.9261564e-05
49	0x37921d12	1.7418093e-05
50	0x381bdb5e	3.715918e-05
51	0x37a7b171	1.9990579e-05
52	0x38044558	3.1535834e-05
53	0x379face6	1.903479e-05
54	0x386f030d	5.698488e-05
55	0x37074a84	8.063977e-06
56	0x381c88fc	3.7320875e-05
57	0x37f4e0b3	2.91917e-05
58	0x379abbca	1.8445677e-05
59	0x382feb7a	4.1942556e-05
60	0x38310798	4.220716e-05
61	0x37317392	1.057693e-05
62	0x378e844b	1.6989323e-05
63	0x38419fdb	4.6163663e-05
64	0x3810a543	3.4486187e-05
65	0x36f7f289	7.3894084e-06
66	0x37b05ea5	2.1024907e-05
67	0x38477ba8	4.756046e-05
68	0x377d4ebf	1.509831e-05
69	0x37d50523	2.539397e-05
70	0x37bc1978	2.2423206e-05
71	0x37ee62f5	2.8417891e-05
72	0x37ee353d	2.8396602e-05
73	0x38143e63	3.5344052e-05
74	0x3802a9d7	3.115259e-05
75	0x37bd87b3	2.2593746e-05
76	0x379b4a40	1.8512015e-05
77	0x375ab142	1.3035084e-05
78	0x380428d6	3.1509284e-05
79	0x37956330	1.7808372e-05
80	0x37a8aa72	2.010653e-05
81	0x3777557c	1.4742251e-05
82	0x381f6a8d	3.8007787e-05
83	0x36c2944e	5.7989155e-06
84	0x37cd3297	2.4461462e-05
85	0x379e9221	1.8903114e-05
86	0x374c3de0	1.2173754e-05
87	0x37e849cc	2.769092e-05
88	0x37f9b025	2.9765137e-05
89	0x36e90c02	6.945339e-06
90	0x373ee1ab	1.1377425e-05
91	0x37fd2b6e	3.0180174e-05
92	0x37bf2a8a	2.2788783e-05
93	0x368fbe9c	4.283922e-06
94	0x376b0075	1.4007198e-05
95	0x38049e00	3.16184e-05
96	0x372878a6	1.0041671e-05
97	0x378804d7	1.6214717e-05
98	0x377c79f6	1.5048767e-05
99	0x37a2d1bf	1.9409576e-05
100	0x378def3b	1.691991e-05
101	0x37c47d3e	2.3423341e-05
102	0x37aa2d72	2.0286741e-05
103	0x3784ede9	1.5846412e-05
104	0x37483905	1.1934205e-05
105	0x37164a61	8.958014e-06
106	0x37a9fffe	2.0265576e-05
107	0x37393027	1.1038071e-05
108	0x376b1f1d	1.4014336e-05
109	0x371c3d70	9.312629e-06
110	0x37d35f77	2.5197614e-05
111	0x368ccc5e	4.1961166e-06
112	0x380f6d9f	3.419595e-05
113	0x37ad9a40	2.0695035e-05
114	0x3785199b	1.5866759e-05
115	0x38025adf	3.1079046e-05
116	0x380f4b00	3.4163706e-05
117	0x36f26cd9	7.2248336e-06
118	0x3790856b	1.7228265e-05
119	0x38144cca	3.5357465e-05
120	0x37d4a182	2.5347577e-05
121	0x375faa02	1.3331419e-05
122	0x37d6341d	2.5535055e-05
123	0x382bffc8	4.1007792e-05
124	0x37c890e5	2.390933e-05
125	0x37fa28ab	2.982126e-05
126	0x37725218	1.4443438e-05
127	0x37f871ba	2.9616862e-05
128	0x378a5a88	1.6493039e-05
129	0x37d2ba76	2.5120778e-05
130	0x37bac0ed	2.2262766e-05
131	0x37e8ef79	2.7768068e-05
132	0x37a2ff2a	1.9430725e-05
133	0x371364c5	8.785345e-06
134	0x37bdbf1d	2.261955e-05
135	0x373e4315	1.1340501e-05
136	0x37d0c3b4	2.4886664e-05
137	0x3715076c	8.88282e-06
138	0x3828ed81	4.0275514e-05
139	0x368135f2	3.8507796e-06
140	0x3a155c48	0.000569765
141	0x39d023ce	0.00039699528
142	0x39901c35	0.00027486836
143	0x3a2d60ff	0.000661388
144	0x3a36e877	0.0006977389
145	0x391938fb	0.00014612444
146	0x3990136d	0.00027480294
147	0x3a333949	0.0006836844
148	0x3a0b5722	0.0005315413
149	0x390ea135	0.0001360223
150	0x39bc7ec6	0.00035952608
151	0x3a4d09df	0.00078216003
152	0x3997799e	0.00028891576
153	0x39d97b7a	0.00041481463
154	0x39a53b12	0.00031515263
155	0x39f025ce	0.00045804534
156	0x39b93096	0.0003532215
157	0x3a0b258e	0.0005308025
158	0x39f88dd2	0.0004740791
159	0x39cccfdd	0.00039064782
160	0x39986eea	0.00029074337
161	0x393f453c	0.00018240971
162	0x39e87051	0.0004433417
163	0x3965ca95	0.0002191461
164	0x39ba75f9	0.0003556458
165	0x3948330c	0.00019092503
166	0x3a22f041	0.000621561
167	0x38a1ef3a	7.721638e-05
168	0x38cc5e70	9.7450684e-05
169	0x389064da	6.88524e-05
170	0x383fcaa4	4.5726672e-05
171	0x38e74e31	0.00011029503
172	0x38f10ed7	0.0001149454
173	0x37d05bc2	2.483826e-05
174	0x383cd7ca	4.5023662e-05
175	0x38f0cd09	0.000114822826
176	0x38b9af17	8.8541005e-05
177	0x37b53f70	2.1606422e-05
178	0x387ce275	6.0292386e-05
179	0x3908062a	0.00012972267
180	0x384717a5	4.7467318e-05
181	0x3892538f	6.9773865e-05
182	0x3862fbb5	5.411702e-05
183	0x38a1ac46	7.709167e-05
184	0x38831382	6.2502004e-05
185	0x38bf3383	9.1171845e-05
186	0x38a5f4ab	7.913386e-05
187	0x38884f89	6.4998e-05
188	0x384b1440	4.841783e-05
189	0x3803f7ba	3.1463547e-05
190	0x389eaead	7.566563e-05
191	0x3824179e	3.9122642e-05
192	0x3874b601	5.8343638e-05
193	0x38084d02	3.2496646e-05
194	0x38da8784	0.00010420292
195	0x375e9c98	1.3268691e-05
196	0x35cc9fc7	1.5245686e-06
197	0x36098235	2.0490381e-06
198	0x359c10a6	1.1627751e-06
199	0x364b74ff	3.0317458e-06
200	0x3653e403	3.157417e-06
201	0x35a69251	1.2410547e-06
202	0x354ce261	7.6325347e-07
203	0x3647eac5	2.9789965e-06
204	0x362ed77d	2.6053451e-06
205	0x340d9599	1.3186072e-07
206	0x350e3139	5.297075e-07
207	0x362c18da	2.5644463e-06
208	0x34821376	2.4228547e-07
209	0x354bd67b	7.5935503e-07
210	0x35f9cf41	1.8612265e-06
211	0x35484b53	7.4615417e-07
212	0x36012046	1.9241284e-06
213	0x3628c49f	2.51484e-06
214	0x362a6fbb	2.539701e-06
215	0x3516983e	5.6100896e-07
216	0x352f5d4f	6.532836e-07
217	0x35b46adb	1.3442144e-06
218	0x3610bc1b	2.1567164e-06
219	0x35b073d8	1.3146737e-06
220	0x35362a97	6.786226e-07
221	0x35c61de6	1.4760851e-06
222	0x354ba7d7	7.586763e-07
223	0x355f9cda	8.330222e-07
224	0x37a65652	1.9828938e-05
225	0x3774569c	1.4563699e-05
226	0x371eb685	9.46003e-06
227	0x37beb9b7	2.2736245e-05
228	0x37c2506a	2.3164048e-05
229	0x36b0a0f8	5.263948e-06
230	0x371d6172	9.3806175e-06
231	0x37c40f63	2.3372186e-05
232	0x379a7461	1.8412424e-05
233	0x36a1beb1	4.8203733e-06
234	0x3757377a	1.2827915e-05
235	0x37de89d4	2.6528644e-05
236	0x37294ad3	1.0090606e-05
237	0x3770f1bb	1.4361397e-05
238	0x3738a288	1.1005097e-05
239	0x3785b166	1.5937443e-05
240	0x3751b354	1.2499124e-05
241	0x379a236c	1.8374725e-05
242	0x3789488a	1.6365451e-05
243	0x3760b7e9	1.339426e-05
244	0x372a41ba	1.0148093e-05
245	0x36dcc312	6.57922e-06
246	0x378419ec	1.5747697e-05
247	0x3709388f	8.179005e-06
248	0x3746f3b6	1.1858463e-05
249	0x36dc7a04	6.5707154e-06
250	0x37b22ed9	2.1241069e-05
251	0x362e361b	2.5959514e-06
252	0x38889b6e	6.5139364e-05
253	0x383facbc	4.569882e-05
254	0x37f4022f	2.9088083e-05
255	0x3898f755	7.293994e-05

exp_avg f4 [45]
0	0xba1f1cfe	-0.0006069689
1	0x3ac469e7	0.0014985175
2	0x3895e874	7.1481714e-05
3	0xb9cc49b8	-0.00038964837
4	0x3af14ffe	0.001841068
5	0x3a266200	0.00063470006
6	0xb844cb8f	-4.691962e-05
7	0xb774b518	-1.45856975e-05
8	0x39c1acf6	0.00036940695
9	0x391676f0	0.00014349422
10	0x3a4486e8	0.0007496909
11	0x39b65750	0.00034778798
12	0x3a69dd1e	0.00089211937
13	0x3a5f1b39	0.00085108314
14	0x3891f2e0	6.959378e-05
15	0xbb34ff14	-0.0027617859
16	0xba535616	-0.0008061839
17	0xb9b6e46b	-0.0003488393
18	0xb8de05b0	-0.00010586844
19	0x3a86bd69	0.0010279837
20	0xba9a97ff	-0.0011794566
21	0x396da8ec	0.0002266501
22	0x39b41f70	0.00034355698
23	0x3a44393a	0.0007485334
24	0x39940ac8	0.00028236792
25	0x38e70018	0.00011014956
26	0xb920bc9e	-0.00015329054
27	0xbacd6561	-0.0015670472
28	0xb985475c	-0.00025420904
29	0xbac3bcc4	-0.0014933576
30	0xbabcd01d	-0.0014405284
31	0x3a3a20b5	0.00071002106
32	0x3addadd5	0.0016912768
33	0xba26d46e	-0.0006364052
34	0x391cc430	0.00014950405
35	0xba73d354	-0.00093012047
36	0x3a86745b	0.0010258065
37	0x3a478e03	0.0007612409
38	0xba186e1e	-0.00058147486
39	0xb82f2c58	-4.176455e-05
40	0x3a846c20	0.0010103025
41	0x3a1ada22	0.0005907138
42	0xb8c88680	-9.561796e-05
43	0x39e06b50	0.00042804563
44	0x3a744c44	0.0009319226

exp_avg_sq f4 [45]
0	0x371580c6	8.9110745e-06
1	0x38c829ca	9.544527e-05
2	0x3898aa98	7.2797004e-05
3	0x3850c8d1	4.977809e-05
4	0x3880d482	6.143098e-05
5	0x3a9c3c04	0.0011919742
6	0x394d5982	0.00019583668
7	0x369c5fd1	4.660317e-06
8	0x382534b8	3.9388164e-05
9	0x391076b6	0.00013777133
10	0x39905a2a	0.00027532998
11	0x3aa5eaba	0.0012658455
12	0x38efbd5b	0.00011431678
13	0x393d4b2b	0.00018052447
14	0x39a29212	0.0003100788
15	0x39616440	0.00021495018
16	0x39f2267d	0.00046186513
17	0x387183e0	5.7581696e-05
18	0x3a4fe7b2	0.00079309486
19	0x385be8c8	5.2430463e-05
20	0x39b68252	0.0003481084
21	0x3864e0df	5.4568864e-05
22	0x3992e3f6	0.00028017134
23	0x39018a56	0.00012353933
24	0x399e64aa	0.0003021111
25	0x38630618	5.4126693e-05
26	0x37846cff	1.5786381e-05
27	0x38b6c1ed	8.714558e-05
28	0x391b7932	0.000148271
29	0x3a825308	0.0009942958
30	0x38f6dc10	0.00011771184
31	0x38a8b4c5	8.044535e-05
32	0x39a3c492	0.0003123624
33	0x3a79ca41	0.00095287344
34	0x395785e1	0.00020553872
35	0x382b4f53	4.0843453e-05
36	0x39f23b8c	0.00046202203
37	0x38aeb6bc	8.3310035e-05
38	0x39f74aa5	0.00047167126
39	0x379fe72c	1.9061925e-05
40	0x394d7d74	0.00019597058
41	0x387894c0	5.9266342e-05
42	0x3891a056	6.944004e-05
43	0x3972a538	0.00023140467
44	0x38c7a17f	9.5191404e-05

exp_avg f4 [3, 45]
0	0x3b24d365	0.0025150415
1	0xba1ca782	-0.00059758883
2	0xbade7436	-0.0016971889
3	0xbb64ffb3	-0.0034942448
4	0x3b32c91c	0.0027280515
5	0xbaaae4ca	-0.0013038155
6	0xbb108955	-0.0022054513
7	0x3a992977	0.0011685331
8	0xbadcf46e	-0.0016857514
9	0xbaea8f62	-0.0017895515
10	0xba8848c4	-0.0010397662
11	0xbbcfa302	-0.0063365707
12	0xbb1e783f	-0.002418056
13	0xbac5260c	-0.0015041246
14	0xbb6534a3	-0.0034974
15	0x3ae52e74	0.0017485158
16	0xbb7dda56	-0.0038734875
17	0xbae78956	-0.0017664831
18	0xba67ccfb	-0.0008842495
19	0x3a911d45	0.0011071345
20	0xbbafd148	-0.0053655244
21	0x3a959382	0.0011411759
22	0xb9cf9980	-0.00039596483
23	0x3b255336	0.00252266
24	0xb9ea18d7	-0.00044650465
25	0x3b86a2b8	0.004108753
26	0x3b66943c	0.003518357
27	0xbb8e6f29	-0.0043467474
28	0xb97373c0	-0.00023217406
29	0x3a9daa8d	0.0012028978
30	0xbb856409	-0.004070763
31	0xbaadc208	-0.0013256678
32	0xbb9a324e	-0.004705704
33	0xbac68ccb	-0.0015148161
34	0x3b23497c	0.0024915626
35	0xbb7721e6	-0.0037709414
36	0xbbeafd19	-0.007171285
37	0x3b1e991e	0.0024200152
38	0xba2c3dcc	-0.0006570488
39	0x3b993954	0.0046760235
40	0x3a2205ce	0.00061806745
41	0xb75e2420	-1.3240642e-05
42	0xbb2f911e	-0.0026789377
43	0xba919e14	-0.0011109733
44	0x39567aec	0.00020454422
45	0x3a5c9b88	0.000841551
46	0xba06dd64	-0.0005144684
47	0xba89a8be	-0.001050256
48	0xba03b868	-0.0005024732
49	0xb9d74170	-0.0004105675
50	0x39626110	0.00021589198
51	0x389f45c0	7.594703e-05
52	0x3a0c9ad0	0.0005363645
53	0xb9f7bf38	-0.0004725398
54	0x39579c28	0.0002056217
55	0x3a7077b0	0.0009173108
56	0xbb150f26	-0.0022744625
57	0xba0efd9c	-0.0005454661
58	0xb7891240	-1.6340171e-05
59	0xb9c82f50	-0.00038182223
60	0xb80a31c0	-3.2948097e-05
61	0xba83d334	-0.001005745
62	0x392a6669	0.00016250614
63	0x39022320	0.00012410851
64	0xba4176a8	-0.0007380047
65	0xb9b84028	-0.00035143015
66	0xb8b4e7c0	-8.626236e-05
67	0x3a546ea1	0.0008103643
68	0x3ab7571c	0.0013987753
69	0xb99fa622	-0.00030450622
70	0x3a47cfd4	0.00076222164
71	0x3933f650	0.00017162529
72	0x38856f60	6.3626794e-05
73	0x39ee36ac	0.0004543563
74	0x39824def	0.00024853597
75	0xb9536cb0	-0.00020163017
76	0xba1b5458	-0.0005925349
77	0xbb00ea43	-0.001967088
78	0x39fdcd98	0.000484091
79	0x3a0ce4b0	0.0005374653
80	0xbad9115d	-0.0016560961
81	0xbb2d66c6	-0.0026458963
82	0xb9568880	-0.0002045948
83	0xb7bb5c80	-2.233521e-05
84	0x39fa8de0	0.0004778942
85	0x392f6e50	0.00016730395
86	0x3a2e4ae2	0.00066487317
87	0x38e06680	0.000107002445
88	0xb839eea0	-4.4329674e-05
89	0x3a582bf6	0.0008246297
90	0xbb85ecb2	-0.004087054
91	0x3b897b97	0.0041956413
92	0xba242a51	-0.0006262409
93	0xbb261d8d	-0.0025347203
94	0x3a215aac	0.0006155174
95	0xb94e53d0	-0.00019676914
96	0x3ada3a60	0.0016649477
97	0xbb97e166	-0.004635024
98	0x3a34c0a4	0.0006895161
99	0xbac74c1e	-0.001520518
100	0x3b8d15bc	0.0043055695
101	0x3b8cb7c0	0.0042943656
102	0x3b4610d9	0.0030222444
103	0x3a043d38	0.00050445227
104	0x3b54a862	0.0032448997
105	0x3b38e482	0.0028212373
106	0x399ec440	0.00030282326
107	0xbb0dedf8	-0.0021656733
108	0x39df4394	0.00042584224
109	0x3a7c43d4	0.0009623144
110	0xb9b4af70	-0.00034462987
111	0x3b5ca56f	0.0033667942
112	0x3a9849c8	0.0011618668
113	0xb9076560	-0.00012912368
114	0xb9014cd4	-0.0001233102
115	0xba7b6cb8	-0.00095910905
116	0xba9bd1f0	-0.0011888128
117	0x39e53770	0.00043719588
118	0xbaa5e036	-0.0012655321
119	0x381b4bc0	3.7025427e-05
120	0xbabb74c4	-0.0014301767
121	0x3b475916	0.003041809
122	0x3b203f6a	0.002445186
123	0x3acd3de7	0.0015658707
124	0xbb1aec5f	-0.0023639423
125	0xbb7b6b45	-0.0038363498
126	0x3aa1ce9c	0.00123449
127	0x3b8b57ee	0.0042524254
128	0xba2a48a2	-0.00064958085
129	0xbb237c0e	-0.0024945769
130	0x3b4a228e	0.003084335
131	0x3b01969c	0.0019773608
132	0x3aaa3598	0.0012985943
133	0xb905d1c8	-0.00012762018
134	0x3b1b6969	0.0023713952

exp_avg_sq f4 [3, 45]
0	0x3af55ff1	0.0018720609
1	0x390821e5	0.00012982597
2	0x388cab95	6.70768e-05
3	0x38c513da	9.39739e-05
4	0x39c09045	0.00036728583
5	0x39ab609b	0.00032687638
6	0x3a8058d7	0.0009792101
7	0x3a9c9196	0.0011945243
8	0x3958f848	0.00020691857
9	0x380b1913	3.3163535e-05
10	0x3acd5cd9	0.001566793
11	0x3bac0ec7	0.005250785
12	0x3abda473	0.0014468565
13	0x395e9442	0.000212268
14	0x3b0d2c6b	0.0021541368
15	0x393f6cbf	0.0001825569
16	0x3a31427e	0.0006761922
17	0x3840ecb2	4.5996807e-05
18	0x39942f7d	0.0002826414
19	0x391c6210	0.0001491385
20	0x3af10a7d	0.0018389967
21	0x39856db7	0.0002544948
22	0x395e49a1	0.00021198999
23	0x399eedc5	0.0003031326
24	0x374e809c	1.2308501e-05
25	0x3aa36339	0.0012465484
26	0x3ab782aa	0.0014000733
27	0x3b025425	0.001988658
28	0x39122b73	0.00013939831
29	0x39200444	0.00015260378
30	0x3a392f80	0.0007064268
31	0x3a26d629	0.000636431
32	0x3b17ffd4	0.0023193257
33	0x39893eca	0.00026177458
34	0x3a462d15	0.00075598183
35	0x3990c405	0.00027611866
36	0x3b26c087	0.0025444345
37	0x395d0e13	0.00021081445
38	0x38ea24bc	0.00011164832
39	0x3ae80efd	0.0017704662
40	0x39988836	0.00029093184
41	0x38973d74	7.2116876e-05
42	0x3acd8d61	0.0015682393
43	0x3991e714	0.00027828722
44	0x399e573e	0.0003020111
45	0x39a66581	0.00031737614
46	0x37e67d3a	2.747645e-05
47	0x377701c1	1.4722756e-05
48	0x3798d96f	1.8221062e-05
49	0x38860690	6.39084e-05
50	0x3884256f	6.301223e-05
51	0x3944d820	0.0001877253
52	0x395fdfd1	0.00021350315
53	0x38236c23	3.896294e-05
54	0x3705a44b	7.96567e-06
55	0x399a7a33	0.00029464214
56	0x3a7c303c	0.00096202246
57	0x399339af	0.00028081003
58	0x38404a72	4.58457e-05
59	0x39d489a2	0.00040538335
60	0x3827a82c	3.9972525e-05
61	0x39018c7c	0.00012354733
62	0x373b0651	1.1147539e-05
63	0x3867534f	5.515228e-05
64	0x37e59061	2.7366159e-05
65	0x39af7556	0.00033466023
66	0x3855b8c9	5.0955252e-05
67	0x382e8097	4.160459e-05
68	0x3862c8d2	5.4069627e-05
69	0x365434b1	3.1621132e-06
70	0x396cbc3c	0.00022576837
71	0x39849245	0.0002528598
72	0x39bbc26a	0.0003581227
73	0x37e37f8f	2.7119908e-05
74	0x381b3b7a	3.701027e-05
75	0x3903c6f8	0.00012567255
76	0x38f2ded5	0.00011580965
77	0x39dbddf0	0.0004193629
78	0x3851c07e	5.0008755e-05
79	0x39106cb8	0.00013773411
80	0x385ee441	5.3141503e-05
81	0x39ee8ac5	0.0004549829
82	0x382c2759	4.104464e-05
83	0x37cbbbcf	2.4286941e-05
84	0x39a52c79	0.00031504387
85	0x386efa2b	5.697661e-05
86	0x378a1058	1.6458493e-05
87	0x399add01	0.0002953783
88	0x3851be07	5.000646e-05
89	0x3879c4af	5.9549402e-05
90	0x3b3c96d4	0.0028776424
91	0x39695cba	0.00022255155
92	0x38d500d4	0.00010156786
93	0x3916397c	0.0001432653
94	0x3a11ce2f	0.0005562035
95	0x3a0ad601	0.00052961713
96	0x3acca763	0.001561385
97	0x3af4b44b	0.0018669454
98	0x39ad1aa3	0.00033016977
99	0x385d5b4a	5.2775526e-05
100	0x3b27a673	0.002558139
101	0x3c09d1d6	0.008411845
102	0x3b1c7cae	0.0023878026
103	0x39b7f587	0.00035087412
104	0x3b5e1dd5	0.0033892293
105	0x39724b9a	0.00023107082
106	0x3a881502	0.0010382237
107	0x387f98db	6.0939095e-05
108	0x39f2d12e	0.00046313688
109	0x39729eec	0.00023138121
110	0x3b3cca04	0.0028806934
111	0x39d51661	0.000406432
112	0x39abfa71	0.00032802255
113	0x3a01d0a7	0.0004952051
114	0x37933542	1.7548566e-05
115	0x3b03e7b8	0.0020127129
116	0x3b13958c	0.0022519557
117	0x3b4aefe9	0.0030965752
118	0x39592b22	0.00020710801
119	0x395d3860	0.00021097204
120	0x3a8f9deb	0.0010957097
121	0x3a883c48	0.0010393942
122	0x3b76037d	0.00375387
123	0x39e02b7a	0.00042757002
124	0x3a9d14fc	0.0011984403
125	0x39f23614	0.00046198128
126	0x3b8686be	0.004105418
127	0x39affe35	0.00033568
128	0x39399bd6	0.00017701028
129	0x3b4171cc	0.002951729
130	0x39f5e531	0.00046900802
131	0x38f6b52d	0.00011763941
132	0x3b2349dc	0.002491585
133	0x39e3c5cb	0.0004344418
134	0x39f7473a	0.0004716458

exp_avg f4 [3]
0	0xbb86a7a9	-0.004109342
1	0xb8e7ef00	-0.000110594556
2	0x3acc42e8	0.0015583904

exp_avg_sq f4 [3]
0	0x3b1b7411	0.0023720304
1	0x39e295c0	0.00043217652
2	0x3b7a62cb	0.0038205858

exp_avg f4 [3, 45]
0	0x3992b1b1	0.0002797968
1	0xb9ed2e51	-0.0004523867
2	0xba009703	-0.0004905315
3	0xb9da5995	-0.00041646944
4	0xb9e04b40	-0.00042780675
5	0xba439231	-0.0007460444
6	0x3a9f917c	0.0012174095
7	0x3a3edc16	0.000728072
8	0xb736b340	-1.088978e-05
9	0x3a13c6ec	0.00056372466
10	0xbac8515f	-0.001528304
11	0x3b1d160f	0.0023969447
12	0xba1069bb	-0.0005508919
13	0xb9b3598a	-0.00034208252
14	0x3b2556b3	0.0025228679
15	0xbb35cecb	-0.0027741666
16	0x3a6348b6	0.00086701976
17	0x39f8416e	0.00047350995
18	0xbab321f4	-0.0013666735
19	0xb9d77255	-0.0004109318
20	0x3aee396f	0.0018175076
21	0x39b2c0d8	0.00034094485
22	0xba6b66cd	-0.0008979857
23	0x3a26461e	0.0006342846
24	0xb8a5568c	-7.883934e-05
25	0xb9f333e4	-0.00046387233
26	0xba23563d	-0.0006230807
27	0x3b10723e	0.002204075
28	0x3931f5a5	0.00016971545
29	0xbb001d53	-0.0019548729
30	0x3b163d60	0.0022924766
31	0xb89eeba4	-7.5779186e-05
32	0x3961cea0	0.00021534646
33	0xba9ac236	-0.0011807147
34	0xba0e6f9e	-0.00054335024
35	0x3a72daf2	0.0009264193
36	0xbabf177a	-0.001457914
37	0xb9add8e8	-0.0003315874
38	0xb8b5bb78	-8.665671e-05
39	0xba9e094e	-0.0012057216
40	0x383585f0	4.3278502e-05
41	0x3a42271f	0.0007406342
42	0x3affa3f2	0.0019503816
43	0xbab81722	-0.001404498
44	0x3a4ff59b	0.00079330214
45	0xbab59e84	-0.0013856445
46	0xba7c7d57	-0.0009631714
47	0xbaa08ef8	-0.0012249639
48	0xb889cebe	-6.571178e-05
49	0xba2483ff	-0.00062757725
50	0x3a0396fc	0.0005019752
51	0x3b29f8e0	0.0025935695
52	0xbaae96c4	-0.0013320078
53	0xba1ca3dd	-0.0005975345
54	0xba390449	-0.00070578285
55	0x3b108d59	0.0022056906
56	0x3b2a9b98	0.0026032683
57	0x3aea69a2	0.0017884264
58	0x3a4711f7	0.00075939245
59	0x3ac0bdb0	0.0014704969
60	0xb9a4b522	-0.00031415472
61	0x39f04b88	0.00045832642
62	0x3a003db8	0.00048920093
63	0x3a073e4c	0.0005159124
64	0xba39557d	-0.00070699287
65	0x3afa2c69	0.0019086722
66	0x3a0c0fcf	0.0005342932
67	0x3a21f760	0.00061785243
68	0x398565f2	0.00025443692
69	0x393bc8d6	0.00017908527
70	0xba88c05a	-0.0010433302
71	0xbaab5d8a	-0.0013074141
72	0x3aecf1a1	0.0018077382
73	0x3a131269	0.00056103483
74	0xba031f60	-0.00050019287
75	0x3a863864	0.0010240194
76	0x399f8941	0.00030429105
77	0x3b070b3e	0.0020606066
78	0xb9a18cde	-0.00030813267
79	0xba8d5669	-0.0010783199
80	0x399414c5	0.00028244234
81	0xba0c75ce	-0.00053581304
82	0x3a11290f	0.0005537429
83	0x3a2a7b96	0.0006503401
84	0xbac0854d	-0.0014688164
85	0x3a0bb121	0.00053288235
86	0x3a84fa2a	0.0010145355
87	0x3ae0ade6	0.001714167
88	0x3a1a0f39	0.0005876902
89	0x3afed1fd	0.0019441243
90	0x3b699152	0.0035639596
91	0xba7dcf34	-0.000968206
92	0xb732f540	-1.06667285e-05
93	0xbaac21c4	-0.0013132622
94	0x39fa252f	0.0004771142
95	0xbac4d99c	-0.0015018466
96	0xbb7e924f	-0.003884453
97	0x3b24dab1	0.0025154764
98	0xbaa5b284	-0.0012641703
99	0x39a57fe1	0.0003156653
100	0xbb4e4de2	-0.0031479527
101	0xbc10d905	-0.008840804
102	0xbb53ea7c	-0.0032335809
103	0xb8ea8b00	-0.0001118388
104	0xbb9763da	-0.0046200575
105	0x3a07aacf	0.0005175294
106	0xbac874b9	-0.0015293575
107	0xba6776e2	-0.00088296656
108	0xba3fb004	-0.00073123
109	0x382a81cc	4.065204e-05
110	0xbb89ab60	-0.0042013377
111	0xbad9bace	-0.0016611458
112	0x36fa65c0	7.462426e-06
113	0x3aab85f6	0.0013086188
114	0x3aa1dee0	0.0012349747
115	0x3b4c8328	0.0031206105
116	0x3b317e05	0.002708317
117	0xbb3b150a	-0.0028546476
118	0x39c3571e	0.00037258206
119	0x3a75e57a	0.0009380203
120	0xbb84b872	-0.004050308
121	0xbadbe51a	-0.0016776652
122	0xbbb23cd4	-0.00543938
123	0xb92f7aca	-0.00016735043
124	0x3b3abdce	0.002849448
125	0xbb2f2448	-0.0026724506
126	0xbb7bad24	-0.003840276
127	0xbb00c700	-0.0019649863
128	0xbaba7d5e	-0.0014228036
129	0x3b76fa12	0.0037685675
130	0xb82f55f0	-4.1803287e-05
131	0xbae8c176	-0.0017757851
132	0xbb3b5c84	-0.002858908
133	0xba4e0b46	-0.0007859956
134	0xbaeb6892	-0.0017960242
